output/best_model.pt (torch, 95330 bytes, 10 tensors)

conv1.bias f4 [64]
000000 fa 0f 8a 3c 2c 11 56 3c cf 97 7b 3c eb de bc 3b
       0.016853321 0.0130656175 0.015356018 0.0057638786
000010 c8 0b 2a 3b 8e 69 a6 3b bd 8f 06 3b 78 39 d5 bb
       0.0025946964 0.005078501 0.0020532452 -0.006507095
000020 74 a9 42 3c ef 02 b7 3b 5a b9 e1 bb 35 a0 d7 3b
       0.011881221 0.0055850665 -0.0068885507 0.0065803775
000030 70 ac 89 3b 39 6a 21 ba 7e 7e d1 bb 0d ab 11 bc
       0.0042014644 -0.0006157491 -0.006393253 -0.008890879
000040 f6 f7 a6 3a 65 69 1f 3c 8b ec b7 3b e2 9e 54 bb
       0.0012738693 0.009729718 0.005612915 -0.0032443334
000050 31 1a f2 ba b0 0f 76 3b b9 ae fb 3b c3 fa 6a bb
       -0.001847094 0.0037545972 0.0076807407 -0.0035855032
000060 06 8e 22 bb b8 09 cb 3b 08 af e1 3b 82 63 d0 3c
       -0.002480389 0.006196227 0.0068873204 0.025438074
000070 4c 24 1c 3c 11 70 3e 3c 12 dd b6 3c 0c 08 9b 3c
       0.009530138 0.011623398 0.022322211 0.018924735
000080 51 54 1e 3c 9c 80 46 3d 61 30 8b 3c 94 82 17 3d
       0.009663657 0.048462495 0.016990842 0.036989763
000090 e4 00 08 3b a2 9e 52 ba 08 00 4b 3c d7 0e 8a 3c
       0.0020752484 -0.00080345024 0.012390144 0.01685278
0000a0 45 b8 8b bc 3a d7 24 3d b3 7c c5 3b fd 29 1d 3d
       -0.01705564 0.04024432 0.006026828 0.03837012
0000b0 e7 df c8 3c 06 4e 1f bb f2 cf e0 3c 1c 84 2c 3c
       0.024520827 -0.002430798 0.027442906 0.010529544
0000c0 fc b8 5b bb 3e 4f c5 3c af c7 33 3b 6f 0a 0b 3b
       -0.0033527007 0.024085637 0.0027432253 0.0021215936
0000d0 50 10 92 3b 99 55 26 bb 74 0c b4 3a 7a b3 23 3c
       0.004457511 -0.002538061 0.0013736621 0.009991521
0000e0 af 9b 83 3a 6b 1d 7a 3c 95 61 3b 3c 1a b8 be 3b
       0.0010040904 0.015265803 0.01143684 0.0058202865
0000f0 72 33 20 3c c6 d1 ec 3b 83 a3 1c 3c 29 21 00 3c
       0.0097778905 0.0072271554 0.009560469 0.007820406

conv1.lin.weight f4 [64, 128]
000000 cf 19 2c 3d 34 e7 de bd ea 12 bd 3d fb 1b 09 be
       0.0420168 -0.10883942 0.09232123 -0.1338958
000010 65 6e ed 3d 6e 89 ff 3d 63 b2 45 bd fd 75 d4 3b
       0.11593322 0.124773845 -0.048265826 0.006483792
000020 b2 68 a1 bd 22 01 09 3e 5e fe c4 bd 99 fd 26 3e
       -0.07881297 0.13379338 -0.09618829 0.16307677
000030 19 b0 1c 3e ca 0e 52 3d 6d 27 ae 3c ad 00 f5 3d
       0.15301551 0.051283635 0.021259034 0.119630195
000040 bb c3 e1 bd a4 97 5e bd fc 55 95 3d 75 e6 0c 3a
       -0.11023661 -0.054343835 0.07291791 0.0005374917
000050 06 4f e6 3d f4 24 97 3d c3 1c e6 bd 37 d2 cd bd
       0.11245541 0.07380095 -0.112359546 -0.10049861
000060 95 c6 d6 3d 0c 20 a7 bd b1 24 d6 b8 82 36 17 3e
       0.10487095 -0.08160409 -0.000102111495 0.14766887
000070 cb cb c4 bd 53 f0 29 3d 77 b3 46 bc df 3a f8 3d
       -0.09609183 0.041488957 -0.012127749 0.12120604
000080 69 4e 78 bc 88 5e 63 3d aa 51 0c be 98 97 10 be
       -0.015155413 0.055510074 -0.13703027 -0.14120328
000090 0f e1 41 be a7 68 01 3e f1 93 aa 3d 9c 58 83 bd
       -0.1893351 0.12637578 0.08328999 -0.06413385
0000a0 fd a8 99 3d 48 e1 64 bd fe 5e c6 bc 5a 3e 90 bd
       0.07502935 -0.055878907 -0.024215218 -0.070431426
0000b0 71 d8 fa 3c 51 f1 34 3d 86 c3 d5 3c 03 0d 14 3e
       0.030620785 0.04417545 0.02609421 0.14458089
0000c0 89 a3 9a bd 52 11 83 bd 97 57 39 bc 64 12 28 3e
       -0.07550723 -0.06399788 -0.011312387 0.16413265
0000d0 bc 09 0f 3d a4 a5 9d bd 69 55 17 3d cf 72 c2 bd
       0.034921393 -0.07697609 0.036946688 -0.09494554
0000e0 aa df 75 bc b8 93 67 3d 7c 58 32 3c ac ef 1d bd
       -0.015006939 0.05653736 0.010885354 -0.038558647
0000f0 dc 3d 10 3e 5a f6 a7 3b f7 32 1f 3d d9 fe bb bc
       0.14086097 0.005125803 0.038866963 -0.02294867
000100 2a 0f 07 bd 42 8c e2 bb 3b 32 93 bd f4 a1 dd 3c
       -0.032973446 -0.0069136927 -0.07187315 0.027054764
000110 a0 21 e6 bd d7 93 a2 bd 6d 42 87 3c 8e 9f ad bc
       -0.11236882 -0.079383545 0.016511166 -0.021194246
000120 a2 72 c1 3d 4e 36 3d 3d 93 4f 2c be 71 98 0e be
       0.094456926 0.046194367 -0.1682723 -0.1392534
000130 f5 f7 0c 3e 7d a1 26 3d 6a e7 14 be 33 cc ce 3c
       0.13766463 0.04068135 -0.14541402 0.025243854
000140 7f 43 28 be ca 28 ae 3d 32 24 83 3b cb c4 09 3e
       -0.16431998 0.08503874 0.0040021176 0.13453977
000150 9c 20 2f 3e 91 77 f0 bd 22 32 e1 bd 38 b9 0e 3e
       0.17102283 -0.117415555 -0.1099589 0.13937843
000160 8d 8d c8 3d a9 da 6b bd e4 ff 57 bd b5 a3 0a be
       0.09792624 -0.057581577 -0.05273427 -0.13539012
000170 08 a4 11 3e 86 83 a9 b9 e7 85 3e bc ec 31 34 be
       0.14222729 -0.00032332184 -0.0116286045 -0.17597169
000180 f6 16 d1 3d 7e e9 40 3e fe 6e 18 be ce 98 96 3d
       0.102094576 0.1883907 -0.1488609 0.07353364
000190 d0 7d 3a 3d 5e 09 92 3d b6 d0 99 3d 40 74 ec 3d
       0.04553014 0.07130693 0.075105116 0.115456104
0001a0 7b 9e 15 be 4b e6 7f bd 8b 3e 61 bc ac 25 da 3d
       -0.14611237 -0.062475484 -0.013747822 0.106517166
0001b0 c0 a0 2d be 25 78 4e 3d 70 be 1b 3d 8e 30 3d bd
       -0.16955853 0.050407548 0.038023412 -0.046188883
0001c0 c4 86 85 bd 4b 5f 03 be 7e 44 14 3e 66 87 19 be
       -0.06519845 -0.1282932 0.14479253 -0.14993057
0001d0 c2 55 3b 3e 25 24 0a 3e b5 4d 9e bd f2 ed fa 3d
       0.18294433 0.1349035 -0.07729665 0.12252416
0001e0 62 30 28 3e 30 e1 24 be 97 5d 04 3e 8b 22 d9 bd
       0.16424707 -0.16101527 0.12926327 -0.10602292
0001f0 d0 12 8d bd 61 82 3e 3e f1 ca 32 be 77 49 31 3e
       -0.06888354 0.18604423 -0.17460229 0.17313181
000200 32 04 ea 3d 47 a7 d0 bd 33 30 2a 3d 81 75 e1 3d
       0.114265814 -0.101881556 0.041549873 0.1100874
000210 88 e3 2f bd aa 46 05 3e 66 27 38 be e9 72 5e bc
       -0.0429416 0.13015237 -0.1798378 -0.013577201
000220 16 7a dd bc 73 2d 91 bc 88 0d 35 3e 5f a0 c9 bb
       -0.027035754 -0.017721867 0.17680943 -0.006153151
000230 3f 35 8d bd c7 77 9e bc 97 8b 99 bd a4 49 66 3d
       -0.068949215 -0.019344224 -0.07497328 0.056222573
000240 56 61 97 3c b8 95 2d bd e8 09 ad 3c 95 14 a0 3d
       0.01847903 -0.04237911 0.021122888 0.07816426
000250 d4 9a 27 3e 19 6b 5c be c4 9c b4 3c 89 a2 39 be
       0.16367656 -0.2152523 0.022047408 -0.18128408
000260 37 93 b1 bd 1f 0a 14 be 15 bc 9c bd 70 10 c2 3d
       -0.08670657 -0.14456986 -0.07653061 0.094757915
000270 95 94 3f 3d b1 63 18 bd 3a e8 66 3d ce 67 30 be
       0.04677256 -0.037204448 0.056373812 -0.17227098
000280 6e a5 11 bc 16 4f 00 3e 0f 97 c8 3c 77 99 65 3c
       -0.008889539 0.12530169 0.024486093 0.01401364
000290 32 92 fc bd 9e a3 a0 bd e4 af 75 3d 4c 38 0b 3e
       -0.12332572 -0.078437075 0.059982195 0.13595694
0002a0 ce 58 00 3e b0 d8 a7 3d 79 6b a9 3d 66 75 08 be
       0.12533876 0.08195627 0.08272452 -0.13326034
0002b0 b9 65 1e be d0 3d 86 bd b7 bc d7 bd fe 7a 44 3d
       -0.15468492 -0.065547585 -0.105340414 0.047968857
0002c0 f4 78 82 3d c1 22 b9 bd 96 10 3c 3d 40 2a dc 3d
       0.06370726 -0.09039832 0.045914255 0.10750246
0002d0 48 df 21 3e 8d 1d 5d bc 41 5f ac bd 3b ef 6b bd
       0.15807831 -0.013495815 -0.08416606 -0.057601195
0002e0 de f4 2e 3e cb e4 67 be 06 56 21 bd e0 d9 82 3c
       0.17085597 -0.22645871 -0.03938868 0.015973032
0002f0 69 60 b5 bd 10 21 fb 3b 2e 3d dd 39 1a 45 7e bc
       -0.088562794 0.0076638535 0.00042197987 -0.015519405
000300 40 d1 fa bc 48 90 c6 bc 68 3a d7 3c 7a 93 21 be
       -0.030617356 -0.02423872 0.026272967 -0.15778914
000310 93 6e 2f 3e 06 3a dd bc 12 25 dc bc 45 3b df 3d
       0.17132024 -0.027005207 -0.026873145 0.10899977
000320 d9 e0 22 bd f9 49 0a 3c a0 fc 83 bc 5c 84 74 3e
       -0.039765213 0.008440488 -0.016111672 0.23878616
000330 44 aa fb 3d 34 75 c9 bd 3a 11 3b bd 2a 56 c6 bd
       0.12288335 -0.09836808 -0.045670725 -0.09684403
000340 91 29 17 bd f8 c9 ef bd 5a 0f e3 bd c8 1b ee 3d
       -0.036904875 -0.11708444 -0.110869125 0.116263926
000350 0b 39 c3 3d e2 5b 11 be 93 b0 3d 3e 04 1a 3c bc
       0.095323645 -0.14195207 0.18524389 -0.011480812
000360 52 11 14 3e 90 c6 1e be 0e 13 15 3e de 70 d7 bc
       0.14459732 -0.15505433 0.1455805 -0.026298936
000370 aa 5d 09 be c1 0c 99 bd e7 39 a4 bd 8c d6 9c 3d
       -0.13414636 -0.07473136 -0.080188565 0.07658109
000380 8c 0c 2c 3e 56 6b 0a be 73 b2 09 3e 42 1c d6 3d
       0.16801661 -0.13517508 0.13446979 0.104546085
000390 05 f1 10 bc cf ad 4b bd bb 0b 73 bd 08 0b 19 be
       -0.008846526 -0.049726304 -0.05933736 -0.14945614
0003a0 f1 52 cc bd 03 26 67 bc cb fd fa bd 6a c2 25 3d
       -0.09976757 -0.014108184 -0.122554384 0.04046861
0003b0 0d 74 9d bd c4 49 81 3d 3d 40 15 be f1 7c ca bc
       -0.076881506 0.06312898 -0.14575286 -0.02471778
0003c0 29 5e cf bd 09 f0 e3 3d cc 25 11 3d d4 d3 29 3e
       -0.101253815 0.111297674 0.035436437 0.16584712
0003d0 7b ad 5f bd 46 83 19 3d 2e 71 70 3d 13 8c 47 be
       -0.054608803 0.037478708 0.058701687 -0.19487028
0003e0 74 16 89 3d 9e 16 97 3d 91 04 78 ba 5f f0 38 be
       0.06693736 0.07377361 -0.00094611297 -0.18060444
0003f0 c2 82 1e be 71 b7 41 bd 49 92 0e be 79 96 76 3d
       -0.15479568 -0.047294084 -0.13922991 0.060202096

conv2.bias f4 [64]
000000 46 7e b0 bb 8e 2f 99 3c 38 5c 96 3b 9a ea 71 bb
       -0.0053861467 0.018699434 0.00458863 -0.0036913515
000010 29 39 0e 3b f1 16 47 3d 3e 33 c7 3c f0 ff 33 3d
       0.002170155 0.048605863 0.024316426 0.043945253
000020 5d 53 25 3d c8 90 2d 3c 1d c3 ae b7 73 40 4d 3b
       0.040362705 0.010593601 -2.0833273e-05 0.0031318932
000030 90 08 a8 3c b9 ec ca 3c 15 8d 8e 3c 4c 39 3f 3a
       0.020511895 0.024771081 0.017401258 0.00072946097
000040 51 f0 9b 3c cc 1a 8f 3c 2f 51 7b 3c 61 6a 22 3c
       0.01903549 0.017468832 0.01533918 0.009913058
000050 80 d9 e2 bb 62 0c 04 3d 32 9d 8a 3c 15 34 56 3d
       -0.0069229007 0.03223837 0.01692066 0.052295763
000060 49 59 b2 3b 6f 14 5d bc c6 51 98 3a 92 81 d3 3c
       0.0054427725 -0.013493641 0.001162105 0.02581862
000070 16 8a cc 3c 3d 73 a8 bb d6 fc 00 3d 60 42 e6 3b
       0.024968188 -0.0051406906 0.031491123 0.0070269555
000080 50 74 37 3d f3 15 7c 3c 59 89 0e 3c 81 e4 29 3d
       0.04478866 0.0153860925 0.008699738 0.041477684
000090 95 41 6e 3c ff 6b 82 3c 65 6d a3 3b 6f 26 ab bc
       0.014542003 0.015920637 0.004987406 -0.02089235
0000a0 6c 8a 48 bb ec 3d 2d 3d d7 c8 25 3c 90 5e ad 3c
       -0.0030600084 0.04229538 0.010118685 0.021163255
0000b0 0f e4 1e 3d 5a 36 20 3d 35 df 1c 3c 18 ee 9f 3b
       0.038791712 0.039114334 0.009574701 0.004880678
0000c0 46 dc 3a 3c ba e8 b4 3c cf dd 86 3c 24 e6 d3 3c
       0.011405056 0.022083629 0.016463188 0.025866576
0000d0 c7 58 74 3c 62 4f 59 3b 76 91 60 3b 86 45 b4 3c
       0.014913744 0.0033158888 0.003426639 0.022005808
0000e0 c0 46 19 bc fd da f8 3c a5 4b a2 3c 80 84 85 bb
       -0.009355247 0.03037786 0.01981146 -0.004074633
0000f0 fe 17 0e bb 56 24 1b 3d 10 a8 da 3c 48 69 a3 3c
       -0.002168178 0.03787645 0.026691467 0.019947663

conv2.lin.weight f4 [64, 64]
000000 48 f3 49 3e 72 da 65 3d 8c bf 4d 3e a6 0d 8e bc
       0.1972171 0.05611653 0.200926 -0.017340492
000010 82 74 23 3e 42 65 38 3e 79 be 24 be b0 24 a0 3d
       0.15962413 0.18007377 -0.16088285 0.078194976
000020 3d be bc bd 79 2f 3d 3e 23 16 db 3c 2a ba 43 be
       -0.092159726 0.1847514 0.026743954 -0.19113985
000030 d4 20 0c be 75 44 22 be d7 03 26 3d 69 e2 14 be
       -0.13684398 -0.15846427 0.040531006 -0.14539494
000040 31 a5 56 be 53 66 26 3d 98 b9 74 3d 29 59 17 be
       -0.20961453 0.040624928 0.05974731 -0.14780106
000050 ef c1 08 3e d5 52 f7 bd 01 a0 12 3e a2 b1 3e be
       0.1335523 -0.12076346 0.14318849 -0.18622449
000060 18 52 93 3d 9e e9 f6 bd 1b e3 63 bd 28 a2 9e bc
       0.071933925 -0.12056278 -0.055636507 -0.019364432
000070 74 f6 da 3d 53 60 6a 3e 74 e0 7a 3d 8b 22 bf 3d
       0.106915385 0.22888307 0.06124921 0.093327604
000080 79 ff d0 3d b8 99 b5 bc 0d d7 ec bc b5 bf 21 3e
       0.102049775 -0.022168025 -0.028911138 0.15795787
000090 bb a7 0d 3c 45 3a 0a be dc a7 30 3e 68 15 79 be
       0.008645947 -0.1349879 0.17251533 -0.24324572
0000a0 dc c5 0c 3e 84 83 eb 3d c8 31 47 3e c0 50 ca 3d
       0.13747352 0.11499694 0.19452584 0.09878683
0000b0 a1 9b a6 bd 95 e2 49 be 08 a3 67 be 27 d6 17 3e
       -0.081351526 -0.1971534 -0.22620785 0.14827786
0000c0 b9 3e c6 3d 12 1d 62 3e 6c 74 29 be 11 e6 0b bc
       0.09679932 0.22081402 -0.16548318 -0.008538739
0000d0 42 de d7 3d 6e 32 73 bc d1 02 88 3d 84 ec 8f 3d
       0.10540439 -0.014843566 0.06641162 0.07027534
0000e0 54 46 b3 3d bf a8 3f 3d b9 d9 3c be aa e5 52 3e
       0.087536484 0.04679179 -0.1844243 0.20595422
0000f0 6d 8d 7b bd 95 1d 3d 3d 75 36 89 bc b7 00 d4 bd
       -0.06141417 0.04617079 -0.0167496 -0.10351699
000100 b7 76 01 bd cd ec 8c bc 54 b8 16 be bb 19 16 3e
       -0.031607356 -0.01720276 -0.14718753 0.14658253
000110 6a f1 ae bd 44 30 e7 bb dd 61 25 3e 6f 49 80 3c
       -0.0854214 -0.0070553143 0.16150613 0.015660016
000120 a5 c0 17 3e bd 00 0b 3e bb 66 53 3e 4c d3 31 3d
       0.14819582 0.135745 0.20644657 0.0434144
000130 f6 74 be 3b 3c 07 b8 3d fa db 9c 3d d0 d2 ac 3d
       0.0058122827 0.08985755 0.07659145 0.08438647
000140 a7 71 12 3e d3 af 3e 3d 3c c3 4a bd da 50 3f 3d
       0.14301167 0.046554398 -0.049502596 0.046707965
000150 f3 01 07 be 3d 95 fd 3c 16 2d c1 bd 29 c1 5a 3e
       -0.13184337 0.030954951 -0.094324276 0.21362747
000160 6d c8 13 be 56 a5 06 be 99 2c 03 be ba 65 65 bd
       -0.14431925 -0.13149008 -0.12809981 -0.056005217
000170 2b 12 ad 3d e9 8f 10 be 73 cc 4d be 12 e0 10 bd
       0.08450731 -0.14117397 -0.20097522 -0.03536994
000180 7c 3a 4d 3d fb 4d 49 be cf 28 d5 bb e3 e7 13 be
       0.050104603 -0.19658653 -0.006505109 -0.14443927
000190 33 13 af bd 11 33 5e bd 26 ac 9f 3d c4 46 1f be
       -0.08548584 -0.05424792 0.077965066 -0.15554339
0001a0 11 e3 bb bc 5b 34 56 be b4 84 85 3a a3 4f 29 3e
       -0.022935422 -0.2091841 0.0010186643 0.16534285
0001b0 7d 8e 3e be bb c4 e8 bd 79 fb 7c 38 1b 5a 4f 3d
       -0.18609042 -0.11365648 6.0315684e-05 0.05062304
0001c0 47 1f 04 be 89 a4 4c 3e 9a c6 97 3d 85 c0 05 be
       -0.12902556 0.1998464 0.07410927 -0.13061722
0001d0 36 38 4c 3e f4 ca 11 3e 27 c6 43 be 33 d9 53 bc
       0.19943318 0.14237577 -0.19118558 -0.012930202
0001e0 ca 52 df bd 26 fb 0a bd 85 19 37 be 25 d4 98 bd
       -0.10904463 -0.03393092 -0.17880829 -0.07462338
0001f0 59 fa 20 bd 90 2c 47 bd 67 59 ec bb d3 05 58 3e
       -0.03930125 -0.048626482 -0.007212806 0.21095972
000200 c7 ee 0f 3e d2 b4 45 3e 78 fb ea bd e0 3d 77 bd
       0.1405593 0.19307259 -0.11473745 -0.060361743
000210 3d b0 9d bb 06 2b 26 be 0c 4f 30 be 63 c4 27 be
       -0.004812269 -0.1622735 -0.17217654 -0.1638351
000220 79 48 1d bd 37 8f 97 bd 8f 76 2a be cd d9 a3 3d
       -0.038399193 -0.07400363 -0.16646789 0.080005266
000230 5a 9b 9d 3d 8f e7 5e 3e f6 d0 30 3e 29 48 9b bd
       0.076956466 0.2176802 0.17267212 -0.07582123
000240 79 0f ad 3d b2 9a 53 3e 86 3b e2 3d dc 19 47 be
       0.08450217 0.2066448 0.110465094 -0.19443458
000250 87 8a 54 3e 1a 44 9c bd 10 76 15 be 13 50 2a be
       0.20755969 -0.07630177 -0.14595819 -0.16632108
000260 1c 74 40 3d 93 69 5b be 62 47 13 bd 2b c5 12 be
       0.04698573 -0.21426992 -0.035956748 -0.14333026
000270 de 7d 21 be 4b 69 a2 3d 08 65 28 be 9c 8a fa bd
       -0.15770671 0.07930239 -0.1644479 -0.12233469
000280 42 9c 4a be d8 e9 3b 3d 67 a7 55 3e 8e c8 e1 ba
       -0.1978617 0.045877308 0.2086464 -0.0017225908
000290 e6 eb e0 3d 60 78 36 be 98 ea dd 3d fa 63 a0 bc
       0.10982494 -0.17819357 0.10835761 -0.019578923
0002a0 b1 0b 22 be 67 95 7a 3e 77 73 5f 3e f4 39 d7 bd
       -0.15824772 0.24471055 0.2182139 -0.105091006
0002b0 fc 9b 0f be 13 e6 5f 3e 13 56 38 3d ea 7c d8 3d
       -0.14024347 0.2186511 0.04500396 0.105707005
0002c0 31 24 53 3e a5 7b 6a be 83 ab b7 bd 0a 77 4d 3e
       0.20619275 -0.22898729 -0.0896826 0.20064941
0002d0 58 8a 27 be 5e ac e9 3d 7d 04 09 3e f6 e9 84 3d
       -0.16361368 0.114098296 0.13380618 0.06489937
0002e0 f8 47 cf bd 53 46 87 bd cd a3 57 be cc 52 16 3e
       -0.10121149 -0.0660521 -0.21058579 0.14680022
0002f0 b0 3d d9 3c cc fd cb 3d c4 f4 34 3e 60 40 21 be
       0.026518673 0.09960517 0.17671496 -0.15747213
000300 b5 89 18 be e3 f4 b9 3c 54 7d 98 bd 89 fb 21 3e
       -0.14896281 0.022699779 -0.074457794 0.1581861
000310 48 8c 9a bd 2a 4f 13 3e fb d6 37 be d6 67 19 3c
       -0.07546288 0.14385667 -0.17953102 0.009363135
000320 1c 13 75 be 1f 0d c8 3d 8f b4 ef 3d 92 a8 24 3c
       -0.23933071 0.09768128 0.11704361 0.010049956
000330 19 76 40 3e 24 c4 ad 3b d4 da 66 3e 2c a6 6b bd
       0.1879505 0.005302923 0.22544414 -0.05753152
000340 88 b7 0d 3e 39 2e 3e 3d 8d 0f 47 3e 02 fa 9b bd
       0.13839543 0.0464308 0.19439526 -0.076160446
000350 e2 01 03 bd d0 86 7d 3e b1 49 ca 3d c1 53 2e 3d
       -0.031984217 0.24758458 0.09877337 0.042560343
000360 7e 6b 1f bd b2 52 2f be 35 ff 1f 3d e4 c0 af 3b
       -0.038920872 -0.1712139 0.039061744 0.0053635705
000370 9c df b7 3d 75 d1 a7 3d a6 49 2d bd 5e c4 6e 3d
       0.08978197 0.08194248 -0.042306565 0.05829274
000380 35 f8 67 bd 74 fb fd bd 37 f6 60 bd 38 cd 98 3d
       -0.056633193 -0.124014765 -0.05492231 0.07461017
000390 c1 dd ca 3b fb a9 10 3e f0 17 bf 3d 21 8c 84 be
       0.006190986 0.14127342 0.093307376 -0.2588816
0003a0 23 9e 3e 3e 0f 8d 25 be ad 6c 22 be d3 8a b0 3d
       0.18615012 -0.16167091 -0.15861769 0.086202286
0003b0 bb 71 a1 3d 74 4c 4a be c0 25 2e 3e a3 a8 6f 3c
       0.078830205 -0.19755727 0.17006588 0.0146276085
0003c0 ba 0a b9 3d f7 50 d2 bd 59 8e 82 3d 79 d2 ac bd
       0.09035249 -0.10269349 0.06374807 -0.08438582
0003d0 98 d6 c9 bb 8e 0d 21 be f3 ce 71 bc da c8 21 3d
       -0.006159615 -0.15727827 -0.014758813 0.039498188
0003e0 67 07 68 be e7 ae f0 bb 19 07 ea 3b 2f 30 2f 3e
       -0.22659074 -0.0073450687 0.0071419594 0.17108224
0003f0 da ec bb 3d bd ea 1e 3d c6 38 09 3e cb af c4 3d
       0.09176035 0.038798083 0.13400564 0.09603842

edge_mlp.0.weight f4 [64, 128]
000000 52 c1 1b 3c ff 87 a4 bc a5 d3 38 bd 45 35 9a bd
       0.00950654 -0.02008438 -0.045123715 -0.075296916
000010 74 f7 08 bd b6 2c 34 bd 7a 6b 39 bb 3f 5c b4 3c
       -0.033439115 -0.043987952 -0.002829282 0.022016643
000020 3b 4e 2d bc 65 45 9f 3d d0 ff 79 bc 0e 1d 22 bd
       -0.010577734 0.07776908 -0.015258744 -0.03957849
000030 21 de 27 bd 1c 3c fe 3d a6 f5 56 3d 78 47 49 3d
       -0.040983323 0.12413809 0.052480362 0.049140424
000040 ec e0 d0 3d e3 0f 68 bc 53 85 09 3b bd 8c 93 bd
       0.101991504 -0.014163944 0.0020984008 -0.07204578
000050 2e 34 0d bd 77 e9 a6 3d bb 42 fc bb d4 a8 cf bc
       -0.03447359 0.08149999 -0.0076983846 -0.025349058
000060 72 88 c6 bc 5f ff 56 3d 5a 78 7d 3d 5a c5 69 3d
       -0.024234984 0.052489635 0.061882354 0.057072975
000070 b8 91 e1 3d 37 0b 2d bd 06 3c df 3d 39 96 94 bd
       0.11014122 -0.042247023 0.109001204 -0.07255215
000080 e2 82 79 3c 21 28 53 3d 88 da 6b bc ab 69 31 bd
       0.015228959 0.05155194 -0.014395364 -0.043313663
000090 89 43 fd bc d7 2b da 3d 63 84 f0 bb a3 19 83 bd
       -0.030915992 0.10652893 -0.0073400005 -0.06401374
0000a0 78 69 a7 3d 27 e6 2c bd b9 63 c5 3c b8 e9 26 bd
       0.081744134 -0.042211678 0.024095403 -0.040750235
0000b0 31 ad 00 bc 52 db 8b 3d 81 ae 99 bc af 86 6d 3c
       -0.007853792 0.068289414 -0.018759968 0.014497443
0000c0 56 36 47 3d cf e4 ce 3d ac 78 d2 3d 48 5d 9f 3c
       0.048635803 0.101022355 0.102769226 0.01945366
0000d0 9a c4 8a bc bc 3e b8 b9 b8 c4 60 3d fa 54 d8 3d
       -0.01693945 -0.00035141956 0.054875106 0.10563083
0000e0 70 4a 91 bd 6b d0 d2 3d 31 e7 e5 3d aa b5 7c bd
       -0.07094276 0.10293659 0.11225737 -0.061696686
0000f0 16 7a 4e bd 07 42 35 bc d6 ec 11 bd 17 e4 87 3d
       -0.0504094 -0.011063105 -0.035626255 0.066353016
000100 05 20 53 3d af 04 c5 bc 8b e6 a0 3d f2 b1 01 3d
       0.051544208 -0.024050085 0.078564726 0.031663842
000110 88 7c 1d 3d 79 33 e2 3d a0 a8 00 3d d1 aa f4 3d
       0.03844884 0.11044974 0.031410813 0.11946643
000120 78 89 d2 3d ec 4a 15 bd ff 7c 45 bc a1 46 a0 3d
       0.10280126 -0.036448404 -0.012053727 0.078259714
000130 b1 77 f4 bc 4c a3 72 3d 08 37 e6 3d 18 c2 b0 bd
       -0.02984223 0.059237763 0.11240965 -0.086307704
000140 17 fb 04 3e 6c a6 cf 3d 67 fa e0 3b 3e e2 87 3d
       0.12986408 0.10139164 0.006865788 0.06634949
000150 98 b5 b8 3c 4a 50 dc 3d a2 20 91 bc 56 ac be bc
       0.022547528 0.107575014 -0.017715756 -0.023275536
000160 32 10 c9 bd 7d 37 62 bb 73 f2 e2 bc a7 e6 57 3d
       -0.09817542 -0.0034517937 -0.0277035 0.0527102
000170 75 44 4c bd 00 0d bb bc ff 8e 9f 3d 75 cb c5 3b
       -0.049869973 -0.022833347 0.07790946 0.006036217
000180 02 2b ae 3d 9e c3 ee 3c c8 25 42 3b 68 8d 94 bc
       0.08504297 0.029146012 0.002962457 -0.018133834
000190 69 e0 09 3e 24 28 13 3e 13 77 11 3b 65 2c b2 3d
       0.13464512 0.14370781 0.0022196218 0.08699874
0001a0 79 2d 4c 3d 91 9e 99 3d 31 51 a5 3d ed 8e 00 3d
       0.049848054 0.07500947 0.08072127 0.031386305
0001b0 1a 12 ce 3d 14 26 c2 3d 01 f8 08 bd 1f 1f af 3d
       0.10062046 0.09479919 -0.03343964 0.08550858
0001c0 d1 76 d7 3c c5 ee a9 bc 96 5d b0 3c 5a e0 27 3c
       0.026301773 -0.020743737 0.021529 0.010246361
0001d0 51 66 50 3c e1 05 fb 3d af 47 3f 3d 69 58 00 3e
       0.012719707 0.12256981 0.046699222 0.12533726
0001e0 8e 14 38 3c 56 6c a7 3d 8e f6 7f 3d c2 88 63 3c
       0.011235369 0.0817496 0.062490992 0.013887586
0001f0 08 bd e9 3d 5b c0 fb 3d 1f 12 0b 3d 7f dc c1 3d
       0.11413008 0.12292548 0.03395283 0.094658844
000200 ae f7 2e bd 7b 2a 66 3d 44 ba 7e 3d f6 58 64 bd
       -0.042716675 0.056192856 0.062189355 -0.055748902
000210 29 f6 b6 3d e2 de e0 bc 55 81 29 bd d6 cc 14 bd
       0.0893367 -0.027450029 -0.041383106 -0.03632816
000220 fc 0b 8b 3d b9 45 a5 3d 96 11 44 3d 98 66 73 3d
       0.06789395 0.08069939 0.047868334 0.059424013
000230 bc bf b2 3a cf 17 91 3d fc 67 ed 3d 9a dc 99 bd
       0.0013637464 0.07084619 0.11592099 -0.075127795
000240 61 95 ba 3d 1b 17 a8 3c 99 44 e1 bc e9 71 e3 bc
       0.09110523 0.02051883 -0.02749853 -0.027764278
000250 a1 38 9f 3d b5 58 ad 3d d1 1d a6 3d 33 a2 fe 3d
       0.07774473 0.08464185 0.08111156 0.12433281
000260 ca ab 31 bd 88 3c 33 3c 04 ca 91 bd e1 50 8c bd
       -0.04337672 0.010939725 -0.071186095 -0.06851364
000270 c0 93 9a bc 27 05 e4 3c a3 56 5a 3c 8e d3 a4 bd
       -0.01886928 0.027834488 0.01332632 -0.08048163
000280 0e d7 fb 3c fd 20 3a 3d 25 75 1b 3d 83 ee cf 3c
       0.030742195 0.045441616 0.037953515 0.025382286
000290 67 fc 68 3d e8 10 07 bd da 43 c4 bd ba f5 a2 bd
       0.056881335 -0.032975107 -0.09583254 -0.07957025
0002a0 78 62 85 bd d7 96 d3 bd 9d 5a 42 3b 53 8b ce 3d
       -0.06512922 -0.10331505 0.002965606 0.10085168
0002b0 d3 6c e2 bc 99 5d 95 bc fc 3c 84 bd 22 1d 1e 3d
       -0.027639782 -0.018233107 -0.06456944 0.038602002
0002c0 39 87 75 3d 5f 53 17 3d 71 e2 dc 3d fb c3 f0 bd
       0.05994341 0.036944743 0.10785378 -0.1175613
0002d0 ac ae 3f bd 03 83 93 bd 29 a0 8e 3c 61 f0 bf 3d
       -0.04679744 -0.07202723 0.017410355 0.093720205
0002e0 ca ec a4 3d 05 c0 f4 bc a6 82 00 bb e9 75 3a bd
       0.080529764 -0.029876718 -0.0019609123 -0.045522604
0002f0 c9 94 3e bd 16 c5 d9 3d 5f eb c0 3c 21 f8 d6 3d
       -0.04652861 0.10633294 0.023549734 0.104965456
000300 00 1c 90 3d ce 8a 6c 3d 8b 8b 92 3d cb 14 d8 bc
       0.070365906 0.057749562 0.07155522 -0.026377102
000310 98 9e e5 bc 46 f7 56 3c ed 08 0f 3e a8 9b 94 3d
       -0.028029725 0.013120478 0.13968249 0.072562516
000320 51 55 d0 3d 9b c7 7c 3d 30 46 95 3d 63 09 d5 bc
       0.10172523 0.061713796 0.07288778 -0.026005452
000330 7e cf 8d 3c 4e 38 01 3a 77 d0 fb 3d f6 11 bb 3b
       0.017310854 0.00049293495 0.12295621 0.005708928
000340 b5 25 ad 3d 9f 81 e5 3d 80 ba 17 3c f9 89 7f 3d
       0.08454458 0.11206364 0.009260774 0.06238744
000350 21 54 3e bd d4 ed 6a bc ca 03 e2 3d 68 ba a0 3d
       -0.04646695 -0.014338929 0.11035879 0.07848054
000360 b8 e5 2c bd 75 54 28 3d e7 d2 39 bc 67 64 02 bb
       -0.042211264 0.04109617 -0.011341787 -0.001989627
000370 75 cf 88 3c e3 24 1f bd 91 e5 75 3b 3a 48 83 3d
       0.016700486 -0.038853537 0.0037520865 0.064102605
000380 f0 10 6e 3d d3 ac 65 3d 7c 8c cd bd 67 67 83 3d
       0.05812162 0.05607302 -0.10036561 0.06416207
000390 e2 5d 2d 3c 20 cd 08 3e e6 84 0c bd d2 a5 16 3c
       0.010581465 0.13359499 -0.03430643 0.009194808
0003a0 72 87 96 3d ba c7 a4 3d 5d 0c 9c bd 61 91 81 3d
       0.07350053 0.08045907 -0.076195456 0.06326557
0003b0 dd da a8 3b e8 20 91 bc 9e 37 c1 bd 00 91 a7 3d
       0.0051530437 -0.017715886 -0.09434436 0.081819534
0003c0 ec 3d 91 3b d0 5d 2e 39 cb 64 39 3d 62 a8 ad bb
       0.0044324305 0.00016628881 0.04526214 -0.005299614
0003d0 17 2a 85 3d c1 7c d6 3d 18 7e 83 3d 7e 90 82 3c
       0.065021686 0.10473014 0.06420535 0.01593804
0003e0 f6 2d a4 bd aa 86 c6 3d 99 e8 b2 bc e7 db 1b 3a
       -0.08016579 0.09693654 -0.021839427 0.0005945549
0003f0 06 d1 0f bc 0f 54 80 3d ee fc fe bb f5 97 5b 3d
       -0.008777862 0.06266033 -0.0077816164 0.053611714

edge_mlp.0.bias f4 [64]
000000 33 f9 87 3d ca c9 76 bd 60 19 67 bd f5 de a2 3d
       0.06639328 -0.060251035 -0.056420684 0.07952682
000010 e4 8d 8c bd ce 40 90 3d 25 36 c6 3c 1d 74 b8 3d
       -0.06863001 0.070436105 0.02419574 0.09006522
000020 b7 69 0b 3d 42 8b 63 bd 8c da 85 3d ed ad 8e 3d
       0.034036364 -0.05555273 0.06535825 0.069667675
000030 6d 59 59 bd c7 91 b5 bc 15 d6 10 3d 74 8c 92 3d
       -0.0530638 -0.022164239 0.035360415 0.071556956
000040 66 47 3f bd 6d 11 cb 3c 2c 67 88 3d ec aa 8c 3d
       -0.04669895 0.024788583 0.066603035 0.06868538
000050 e1 eb df 3c 30 80 07 bd 06 45 3e 3d 26 1f 89 bd
       0.027334156 -0.033081234 0.046452545 -0.06695394
000060 42 c9 9d 3d 9a b9 1c bd 69 47 02 3d 1f 52 c0 3d
       0.077044025 -0.03826294 0.031806383 0.09390663
000070 3a e2 1b bd 76 f8 94 bc 6a cd d7 bc 28 18 0d bb
       -0.038057543 -0.018184882 -0.026343066 -0.002152929
000080 cb a6 92 bb 85 f0 b8 3d 6f 23 1d 3b 9b 1a a2 3d
       -0.0044754497 0.090302505 0.002397742 0.07915231
000090 1c 46 8e bd 05 01 a1 bc a5 d3 d6 3c 22 f3 0b 3c
       -0.06946966 -0.019653806 0.026223967 0.008541854
0000a0 12 de b7 3c ea 3e 77 3d c1 c8 a8 3d 1c 1e b6 3c
       0.022444759 0.060362734 0.08241416 0.022231154
0000b0 24 c6 90 3d c3 49 f0 3c 03 ad 44 3d 80 a2 24 3d
       0.07069042 0.029332047 0.04801656 0.040194035
0000c0 ab ac 19 bd 27 22 8c 3d c0 f3 85 3d 40 44 a4 bd
       -0.037518185 0.068424515 0.06540632 -0.0802083
0000d0 25 57 9b bd f7 96 3f 3d cb 8c 5b bd ca 07 0b bd
       -0.07584981 0.04677483 -0.053601068 -0.033942975
0000e0 53 3e 8c bd 43 ab a8 bd 0c 5a a1 3d c7 a8 c7 bd
       -0.06847825 -0.082357906 0.07878503 -0.097489886
0000f0 74 b3 3a 3d dd aa 0f bd b2 a0 a4 bc 8b cb b7 bd
       0.045581296 -0.035075057 -0.020096157 -0.089743696

edge_mlp.2.weight f4 [32, 64]
000000 56 f3 87 bd fe 9c 66 3c d3 a1 58 bc c9 f0 bb bd
       -0.066382095 0.014075516 -0.013222176 -0.091767855
000010 b7 65 24 3d 32 83 e5 3d a3 ff 71 3c 51 5d e3 3d
       0.040136065 0.11206664 0.014770421 0.11101783
000020 27 3b a0 3d f9 de a6 3c cb d2 36 3d 52 be 96 3d
       0.078237824 0.020369994 0.04463462 0.073605195
000030 37 87 d7 bd 84 95 5a bc db 5b d4 3d 63 72 8b 3d
       -0.10523837 -0.013341311 0.103690825 0.06808927
000040 89 e0 39 bd e1 81 fe bd e0 4a 17 bb c5 61 38 bd
       -0.04538015 -0.12427116 -0.00230854 -0.045015115
000050 87 ae 74 3d 9c 3f b4 3d 7f 75 cd bd 0c 30 92 bd
       0.059736755 0.08801195 -0.10032176 -0.071380705
000060 79 b3 b4 bc 18 06 01 3d 55 f2 b0 3c 6e fe b9 bd
       -0.022058235 0.031499952 0.021599928 -0.09081732
000070 05 61 c7 3d fa 2d e2 3d b8 00 08 bd 87 f6 39 bd
       0.09735302 0.110439256 -0.03320381 -0.045401122
000080 1c d5 49 3d 0f 20 a7 3d bc f5 a7 3d 00 ba 59 3c
       0.049275503 0.081604116 0.08201167 0.013288975
000090 56 2c 7c 3d cc 39 fe 3d 80 99 91 bd c9 3d a4 bd
       0.06156572 0.12413368 -0.07109356 -0.08019597
0000a0 5d 12 03 3d 1d 36 d1 3d 7e 10 24 3d 80 cd a7 3b
       0.031999934 0.102153994 0.04005479 0.005120933
0000b0 6b 06 08 3e da 96 a0 bd 9d 0c 6d 3d 00 b9 8c bb
       0.13283698 -0.07841273 0.057873357 -0.0042945147
0000c0 30 31 a8 bd 96 d7 d7 bd f9 ea ee 3d 6d cc c3 b9
       -0.08212507 -0.10539167 0.11665911 -0.00037345607
0000d0 45 51 2d 3d a1 39 e0 bc a9 e8 92 bd cf b3 a1 3d
       0.042313833 -0.02737123 -0.07173283 0.07895624
0000e0 2c aa f8 3d c7 2a ab bd b2 21 93 bd 1b 0a d9 3d
       0.12141833 -0.083577685 -0.07184161 0.105976306
0000f0 a0 17 e9 3d 97 4d 9e bd 4e 8c 73 bc 51 03 4a bd
       0.11381459 -0.07729643 -0.014864994 -0.04931957
000100 6a e0 23 bd b0 72 98 bd d2 41 cb 3d 51 39 c9 bd
       -0.04000894 -0.0744375 0.099246636 -0.09825385
000110 3c 41 cc 3d 68 21 14 3c c1 cc a3 bd 7f 58 e0 3d
       0.0997338 0.009041168 -0.07998038 0.10954379
000120 5d bb a9 bb 06 22 8d 3d 44 9c 0a 3e 87 5b b5 3d
       -0.005179806 0.06891255 0.13536173 0.08855348
000130 c7 0c f9 3d 5e 14 ba bd 9e 62 e6 3a a5 19 c3 bd
       0.1216064 -0.09085916 0.0017576998 -0.09526376
000140 1f be 91 3a 7e a1 0d bd 56 3d 03 bd e4 63 11 3d
       0.0011119283 -0.03457784 -0.032040916 0.035495654
000150 e7 aa f7 3d 73 f2 14 3d 13 a0 a9 ba 56 33 2e bd
       0.12093144 0.03636403 -0.0012941383 -0.042529427
000160 59 6d f8 3c 14 80 a4 3c ba f8 d8 bd c4 eb 07 be
       0.030325579 0.020080604 -0.10594316 -0.13273531
000170 39 1a a2 bc 90 6f f2 3c 3d c3 9c bc 4f bc 68 bd
       -0.019787895 0.029594213 -0.019136066 -0.05682021
000180 2d ff 66 3d 2c 78 af bd 60 ea 8e bd 15 23 8b bd
       0.0563957 -0.08567843 -0.06978297 -0.06793801
000190 05 cf 94 bc 5c 6f 07 3e c4 e2 ed bd 2a 4e 2e 3d
       -0.01816512 0.13226074 -0.11615518 0.04255501
0001a0 5d f2 2f bd e1 c0 21 3e 10 94 6b bb 2d db f1 bb
       -0.042955745 0.15796234 -0.0035946406 -0.007380864
0001b0 49 6d cd 3d 82 b8 86 3d 08 03 90 3d a5 f1 a6 bd
       0.1003061 0.06578161 0.07031828 -0.08151559
0001c0 fd f0 cb 3d 16 1c 4d 3d c1 25 ed 3d 16 63 2e 3d
       0.09958074 0.050075613 0.115794666 0.042574964
0001d0 50 96 81 3d db ae 88 bc 9f 83 f9 3d 9c e0 88 3c
       0.06327498 -0.01668494 0.12183308 0.016708665
0001e0 e1 44 07 3e 38 8f c6 3c 5b 6b fe bd 12 9f fe 3c
       0.13209869 0.024238214 -0.1242282 0.03108171
0001f0 f8 7a 25 bc d3 16 9b 3d 87 c1 76 bd 6e 5c ef 3d
       -0.010100119 0.07572713 -0.060243156 0.116875514
000200 4a b2 48 bc 6c 79 e6 bc 41 42 e4 3d 08 c5 e6 3d
       -0.012249539 -0.02813407 0.111454494 0.112680495
000210 bc a0 d0 3d a8 c6 9c bd 8d ff 39 3d 9a dd 1c 3d
       0.10186908 -0.07655078 0.045409728 0.038297273
000220 5d 78 d0 bd 8c 0a 20 3d a6 8f 95 3c cb e0 16 bd
       -0.101792075 0.03907256 0.018256973 -0.036835473
000230 bd 9d 4c bd 0c 5a 7f 3d c1 f9 79 bc 69 09 51 bc
       -0.04995512 0.062341735 -0.0152573 -0.012758591
000240 50 82 9c bc 0e 8f d1 bc b6 d2 16 bc 6a 15 8c bd
       -0.019105107 -0.02558091 -0.009205511 -0.06840022
000250 18 59 fe 3c d2 6a 99 3c ed cb ef bd 88 42 bd bd
       0.031048343 0.018727694 -0.11708818 -0.092412055
000260 a1 dd 15 bc 9b e2 d0 bd 30 06 95 3d f9 b4 19 be
       -0.009147079 -0.101994716 0.07276571 -0.15010442
000270 ab e8 d5 3c 4e 61 c7 bd 1d 28 af bd 1b 5f 99 3d
       0.026111921 -0.09735356 -0.08552573 0.07488843
000280 9e c0 97 3a b6 df 4e bc da 8d 91 bd d8 ba 98 3d
       0.001157779 -0.012626579 -0.07107134 0.074575126
000290 25 8d a5 3c 58 9b 9c bd ca 8e f5 bd ee 43 0b be
       0.020208905 -0.07646817 -0.119901255 -0.13600132
0002a0 69 f0 f1 bd b8 8c 35 3d 67 b0 a3 bb 27 b1 8d bd
       -0.11813433 0.044323653 -0.004995394 -0.06918555
0002b0 9b f4 79 bd 4f 26 57 bd cf 78 80 3c d1 ff 66 bc
       -0.06102429 -0.05252677 0.015682606 -0.014099077
0002c0 70 69 07 3d 88 f5 e0 3d d5 20 3c 3d 0c 60 0d be
       0.033059537 0.10984331 0.04592975 -0.1380617
0002d0 d4 69 e7 bc c6 03 8d 3c 04 11 ec 3d af 42 ae bd
       -0.028248705 0.017213713 0.11526683 -0.08508813
0002e0 0e db d7 3d e7 8b a4 3c 02 13 04 be 96 4c 4a bd
       0.10539828 0.020086242 -0.12897876 -0.049389444
0002f0 04 b1 6c bd 47 64 89 3b 67 c3 22 3d ce 55 a4 3d
       -0.057786003 0.004192862 0.03973713 0.080241784
000300 90 dd 35 3d 42 29 19 bc 2f 1f b8 bd eb 7e a8 bd
       0.04440075 -0.009348216 -0.08990323 -0.08227333
000310 52 5c 8d 3d 21 92 40 3d d5 ec d9 bd ea e8 d9 bd
       0.06902374 0.04701436 -0.10640875 -0.10640128
000320 9a e9 87 3d fa 16 fb bc 37 fa 92 bd 10 dd 87 3d
       0.06636353 -0.030650605 -0.07176631 0.06633961
000330 4c 5a 06 3a 34 ee 0f bd 97 eb 21 3c fa 0f e9 bd
       0.00051251496 -0.035139278 0.009882829 -0.113800004
000340 18 e0 37 3d c7 85 ef bb 82 3b c3 bd a4 65 58 3d
       0.044891447 -0.0073096487 -0.095328346 0.052831307
000350 69 ad 07 be 97 50 a5 bd 64 bf 07 3e 43 ab 1e bd
       -0.13249744 -0.08072012 0.13256603 -0.038737547
000360 23 28 ee 3d 19 f6 b9 3d 1e 34 65 bc be ed bc bc
       0.11628749 0.090801425 -0.0139894765 -0.023062583
000370 68 c9 b1 bd 44 05 bc 3d 18 b3 c3 bd 72 ca d1 bd
       -0.08680993 0.09180692 -0.09555644 -0.102436915
000380 9e be ff bd 8a fb 4b 3d e0 aa 26 3d 32 e2 9f bc
       -0.12487529 0.049800433 0.040690303 -0.019517038
000390 22 56 b2 bc 88 b6 fa bd 6d aa dd 3d a9 43 d5 3c
       -0.021769587 -0.12241846 0.10823522 0.02603324
0003a0 b0 77 0f bd b9 ba ca bc d8 6f 88 bd 22 7e 8a 3d
       -0.035026252 -0.02474724 -0.066619575 0.06762339
0003b0 9d 4a 87 3d 5e d8 67 3c 0d 34 c6 3d e1 a1 6f 3d
       0.06606028 0.014150707 0.09677897 0.05850399
0003c0 0f 59 61 bd 74 a4 b1 3d 3c ed 92 3c 9f 4d 01 3e
       -0.055016574 0.08673945 0.017935388 0.12627266
0003d0 a2 99 cf bd 6f a4 26 3a 3d 54 a6 bc f7 30 cc bd
       -0.10136725 0.00063569 -0.02030384 -0.09970277
0003e0 2d ba 09 bd 15 43 93 bc be 00 81 bd 9a 35 03 be
       -0.033624817 -0.017976323 -0.0629897 -0.12813416
0003f0 84 e5 ca 3c fc 11 56 bd 77 e1 b1 bd 6c 1d 35 bd
       0.024767645 -0.052263245 -0.08685582 -0.044217512

edge_mlp.2.bias f4 [32]
000000 e7 72 29 bc 94 bd 1a bc 86 47 0e bd c7 ae a5 bd
       -0.010342336 -0.009444613 -0.03473618 -0.08089977
000010 bb 21 e6 3d f4 7d 97 3d 14 fe a0 bd fb 30 41 3d
       0.11236902 0.073970705 -0.078609616 0.047165852
000020 c9 23 e0 3d 56 b9 37 bc dd 64 da bd d2 c1 ea bd
       0.109443255 -0.011213621 -0.106637694 -0.114627495
000030 9c d4 50 3c d3 44 a4 bd 12 92 1e bc 90 5c bf 3d
       0.0127460025 -0.0802094 -0.009678381 0.09343827
000040 5c 4a 4d 3d dd 55 4e 3c c4 ab 93 3d 8e fc 9c bd
       0.050119743 0.012593714 0.07210496 -0.076653585
000050 66 83 49 bd f4 12 d9 3d 1b e8 e0 bc 8c 34 fb 3d
       -0.049197577 0.10599318 -0.027454427 0.12265882
000060 81 b4 61 3d be a0 5b bc 7a 96 64 bc 14 31 52 bd
       0.055103783 -0.013405023 -0.013951892 -0.051316336
000070 8a 86 ba bd a8 05 ea bd 6e 1b 9e 3d af ec 10 3d
       -0.091076925 -0.1142686 0.077200755 0.03538197

edge_mlp.3.weight f4 [2, 32]
000000 78 bc 0a 3e df b2 c3 3d 57 ff ba 3d 04 35 a7 bd
       0.13548458 0.09555601 0.091307335 -0.08164409
000010 93 3b 9a 3d 8e 80 82 3d 0f 97 0a 3e b5 35 fc bd
       0.07530894 0.06372176 0.13534187 -0.12314931
000020 8f 2e d7 bd 4c ec 40 bd e2 87 a4 3b ef 15 15 3c
       -0.10506927 -0.04710035 0.0050210813 0.009099468
000030 21 9c 4a 3e d7 ac 93 bd 00 b5 fb 3c cd 2d 21 3e
       0.19786121 -0.07210701 0.030725956 0.15740128
000040 85 2c 9d 3d 9f bc a3 bd 97 e8 24 3e d5 c5 37 be
       0.07674507 -0.07994961 0.16104351 -0.1794656
000050 58 4f cb 3d f2 e2 22 3e 99 15 01 be 72 e6 34 be
       0.09927243 0.15906885 -0.12605895 -0.17666033
000060 58 89 05 3e b4 2b 4a be db a9 d1 bc b1 49 2e 3d
       0.13040674 -0.19743234 -0.025593689 0.042550746
000070 05 87 02 3e 69 12 21 be 9e 0b da 3d 49 98 ba bd
       0.12746818 -0.15729679 0.10646747 -0.09111077
000080 1a cc 9f 3d 78 f4 3e be 7d f9 e4 bc 90 38 71 bb
       0.07802601 -0.18647945 -0.027950997 -0.0036807396
000090 51 d3 42 3c 3a 81 33 3e 8a 24 af bd da c0 81 bd
       0.011891202 0.17529765 -0.08551891 -0.06335612
0000a0 71 93 7d bd d5 fe 20 3e 9b 94 86 bd 1e a3 3d be
       -0.06190819 0.1572221 -0.06571313 -0.18519256
0000b0 eb 2d 49 3d c9 e4 8a bc 96 45 53 3e da 42 46 3b
       0.049116056 -0.016954796 0.20632014 0.003025225
0000c0 c0 78 ac bd e7 dd 4c 3d d3 e0 91 bd 7d ae 98 3d
       -0.08421469 0.05001631 -0.0712296 0.07455156
0000d0 f9 2a 3e 3d 2b cd ad 3c 83 7b 8d 3d 04 85 3b 3e
       0.0464277 0.021215996 0.069083236 0.1831246
0000e0 96 b4 44 3c 31 9a 0b be 87 49 2e be 00 64 b7 bd
       0.012005946 -0.13633038 -0.17020236 -0.0895462
0000f0 49 bd 19 be 77 06 88 bc f8 a9 96 3b 25 5a f7 3d
       -0.15013613 -0.016604645 0.0045978986 0.120777406

edge_mlp.3.bias f4 [2]
000000 b1 86 74 bd af 4e 3a 3e
       -0.059698764 0.18194078
