output/directed_G_True/best_model.pt (torch, 95330 bytes, 10 tensors)

conv1.bias f4 [64]
0	0xbc17cbdf	-0.009264915
1	0x3c0eaef5	0.008708705
2	0x3bee1231	0.007265352
3	0x3cc19b38	0.023633584
4	0x3c830d0f	0.015997438
5	0x3c655677	0.013997666
6	0xbc949c5c	-0.018140964
7	0x3b49d1e3	0.0030795268
8	0x3cbd1c46	0.02308477
9	0x3b89b449	0.0042024
10	0x3d3fd169	0.04683057
11	0x3d28dc14	0.041225508
12	0x3cb64523	0.022249764
13	0x3c79cea0	0.015247017
14	0x3b68cfca	0.0035524243
15	0xbb9335f8	-0.0044925176
16	0x3d382fd9	0.044967506
17	0x3a6c5449	0.0009015245
18	0xba6abbba	-0.0008954365
19	0x3c77cafe	0.015124081
20	0x3d1433e9	0.036182318
21	0x3b0d9e23	0.002160915
22	0x3b9d012b	0.004791399
23	0x3caa8977	0.020817501
24	0x3cf4107a	0.029793013
25	0xbb110fc3	-0.002213464
26	0x3d3b0a8e	0.045664363
27	0x3ca9cd84	0.02072788
28	0x3bcff4e0	0.00634633
29	0x3d4770b4	0.048691466
30	0x3ca7d1b9	0.020485746
31	0xbc03bfaa	-0.008041302
32	0x3b9d2328	0.0047954507
33	0x3cbd1df8	0.02308558
34	0x3cd76538	0.026293382
35	0xbbf32a9d	-0.0074208514
36	0x3b7b48f6	0.0038343049
37	0x3bc7ea9e	0.0061009666
38	0x3c8a4621	0.016879143
39	0x3d6a4099	0.05719051
40	0x3c2d8c95	0.010592599
41	0xbb20f28f	-0.0024558639
42	0x3c8df000	0.017326355
43	0x3ccf7d7a	0.025328387
44	0x3b970165	0.0046083205
45	0x3d2356bb	0.039877634
46	0x398b66e7	0.00026588814
47	0xba84e9e7	-0.0010140509
48	0x3c3f4084	0.011673097
49	0xbbb556f2	-0.0055340463
50	0xbbe57146	-0.0070020286
51	0x3bed6327	0.007244486
52	0x3c8601f3	0.016358351
53	0x3caa31fa	0.020775784
54	0x3b5cafae	0.003367405
55	0x3ca49e05	0.02009488
56	0x3cab487d	0.020908589
57	0x3c047d38	0.008086495
58	0x3bd0c155	0.006370703
59	0x3b861c5e	0.004092737
60	0x3c1729ab	0.009226243
61	0x3c92b732	0.01790962
62	0x3c14f8f4	0.009092558
63	0x3d2ca8e6	0.04215326

conv1.lin.weight f4 [64, 128]
0	0xbce3d993	-0.027813708
1	0xbe151853	-0.1456006
2	0xbe148b8c	-0.14506358
3	0xbe6485e6	-0.22316703
4	0xbde7262a	-0.11286576
5	0xbdff617c	-0.124697655
6	0xbd79eda6	-0.061017655
7	0x3d40b342	0.047045954
8	0xbd58e8bb	-0.052956324
9	0x39e51683	0.00043695056
10	0xbda858a4	-0.08220032
11	0xbc85a969	-0.016316133
12	0x3de443c2	0.11145736
13	0x3dfe57d9	0.12419099
14	0xbd6347fe	-0.05548858
15	0xbcc605f2	-0.024172757
16	0xbe279440	-0.16365147
17	0x3db271f2	0.087131396
18	0xbd621ff6	-0.05520626
19	0x3ca4133b	0.020028701
20	0x3e02f10f	0.12787269
21	0xbd94c404	-0.072639495
22	0xbe207a5d	-0.15671678
23	0x3e39709c	0.18109363
24	0xbd406fb0	-0.046981514
25	0x3d6d20de	0.057892673
26	0xbd83e739	-0.064405866
27	0x3df071bd	0.11740444
28	0x3e4c467e	0.19948766
29	0x3d324ec6	0.043532155
30	0xbdbc3b14	-0.09190956
31	0xbe2d3bf7	-0.16917406
32	0xbdfe02f6	-0.124029085
33	0x3d8f0908	0.069841444
34	0x3bec1901	0.007205129
35	0x3def78ce	0.116929635
36	0x3c2ab88d	0.010419977
37	0xbc733b41	-0.01484567
38	0xbe24f237	-0.16108023
39	0x3e619ea5	0.22033174
40	0xbd98bdcb	-0.07458075
41	0xbd31a794	-0.043372706
42	0x3e1805a3	0.148459
43	0xbd893741	-0.06699992
44	0x3dee5e83	0.116391204
45	0x3dbe85de	0.09302877
46	0x3df92450	0.12165129
47	0x3d9ee577	0.07758611
48	0xbe315593	-0.173178
49	0xbd2e1344	-0.042498842
50	0x3de13fab	0.10998472
51	0x3e34557e	0.17610738
52	0x3e410591	0.1884978
53	0xbcf31a30	-0.029675573
54	0x3e2dadf9	0.16960897
55	0x3d00199b	0.03127442
56	0xbc0767bc	-0.008264478
57	0x3e1cc777	0.15310465
58	0x3d3d63fc	0.04623793
59	0x3e0ffa5b	0.14060347
60	0xbdd9c226	-0.10632734
61	0x3d55de3a	0.052213885
62	0x3d8e1045	0.06936697
63	0x3d1be6a1	0.03806174
64	0xbe1f20fe	-0.1553993
65	0x3dcdb619	0.10044498
66	0x3e179048	0.14801133
67	0x3de5abec	0.11214432
68	0x3dc45a5f	0.095875494
69	0xbdf4d40b	-0.119545065
70	0x3d774d10	0.060376227
71	0x3e3f95c1	0.1870947
72	0x3daba493	0.083809994
73	0xbcf48a39	-0.029851066
74	0x3c8603bc	0.016359203
75	0x3d8e0a9a	0.06935616
76	0xbe4a48bd	-0.1975431
77	0x3e1db008	0.15399182
78	0xbdf3b0c0	-0.11898947
79	0xbe02c4d1	-0.12770392
80	0x3bec7833	0.0072164773
81	0xbd196889	-0.037453208
82	0x3df1620a	0.117862776
83	0xbd7c0c27	-0.061535027
84	0xbd7926ef	-0.060828146
85	0xbd40b776	-0.047049962
86	0x3e0f7a1e	0.14011428
87	0xbe4aee8d	-0.19817562
88	0xbd1261bb	-0.035737734
89	0xbe306075	-0.17224295
90	0xbe0ad11e	-0.13556334
91	0x3da3cfc7	0.07998615
92	0xbc44ee2d	-0.012019676
93	0xb986cc95	-0.00025710897
94	0xbd2dd3e9	-0.04243842
95	0x3e04ad64	0.12956768
96	0xbda16a4a	-0.07881601
97	0x3d7eb2a1	0.062182073
98	0xbdbe702e	-0.0929874
99	0xbdbbf76c	-0.09178051
100	0x3e22015f	0.15820836
101	0x3de2264f	0.11042463
102	0x3e249479	0.16072263
103	0x3deee2c4	0.11664346
104	0x3d874c08	0.06606299
105	0x3dde6524	0.10859135
106	0xbd577c69	-0.05260888
107	0x3dc36957	0.09541576
108	0xbe2813d5	-0.16413815
109	0x3da74543	0.081675075
110	0x3dfc8d16	0.123315975
111	0xbe0eac95	-0.13933022
112	0x3dc6f2b2	0.09714259
113	0x3def1658	0.116741836
114	0xbd824058	-0.06359929
115	0x3c8359e8	0.016034082
116	0xbca3a214	-0.019974746
117	0x3df9687e	0.121781334
118	0x3e427918	0.18991506
119	0x3d5c5a45	0.053797025
120	0x3d5b33f7	0.053516354
121	0x3e17d6ca	0.1482803
122	0x3cbbeb68	0.022939399
123	0x3d83f818	0.064438045
124	0xbdf418b6	-0.11918776
125	0xbd83d30d	-0.06436739
126	0xbde67599	-0.11252899
127	0xbc598366	-0.013275957
128	0xbe1a885a	-0.15091076
129	0x3d88681b	0.066604815
130	0x3d7b7021	0.06138623
131	0xbe354cd3	-0.17705087
132	0xbdb60c70	-0.08889091
133	0x3df19193	0.11795344
134	0x3e1e3722	0.15450719
135	0x3e2a654b	0.16640203
136	0xbdb017e9	-0.085983105
137	0x3e062587	0.13100253
138	0xbd0d8115	-0.03454693
139	0x3d28264d	0.04105215
140	0xbdda7c58	-0.10668248
141	0x3cecad61	0.028891267
142	0xbe2fb224	-0.17157799
143	0x3ce1bf28	0.02755697
144	0xbd231b89	-0.03982118
145	0xbdc2c18f	-0.095095746
146	0xbd867cd3	-0.06566777
147	0xbe0446fb	-0.12917702
148	0x3c07616b	0.008262972
149	0x3defa9ee	0.117023334
150	0x3da72c73	0.08162775
151	0x3d8d9ef2	0.06915082
152	0xbda1071a	-0.07862683
153	0xbd8052c9	-0.0626579
154	0xbe4dfdc3	-0.20116334
155	0xbe1a42df	-0.15064572
156	0xbe322bc0	-0.17399502
157	0xbca2b996	-0.019863885
158	0xbda3b391	-0.07993234
159	0x3ddbc104	0.10730174
160	0xbdac992c	-0.08427653
161	0x3e473e59	0.19457377
162	0x3e0bc154	0.13647968
163	0xbdc90a6f	-0.09816443
164	0xbca8ecb2	-0.020620678
165	0xbe01b02b	-0.12664859
166	0x3de8c069	0.11364824
167	0x3d8dee12	0.06930174
168	0xbe0063d7	-0.12538086
169	0xbd053fa0	-0.03253138
170	0xbd9ff2af	-0.0780996
171	0x3dfa4795	0.122206844
172	0x3dbb7c5e	0.091545805
173	0x3e140af1	0.14457299
174	0x3de440ea	0.11145194
175	0x3d4386d8	0.04773602
176	0x3cb31b4f	0.021863608
177	0x3dee0f1b	0.11623975
178	0xbd428a31	-0.04749507
179	0x3d5e4296	0.05426272
180	0x3e253d16	0.16136584
181	0x3d5fae40	0.054609537
182	0xbdfc3b46	-0.12315993
183	0x3e7206b5	0.23635371
184	0xbdfbcc07	-0.122947745
185	0x3d9eb01d	0.07748435
186	0x3e1dd3f5	0.15412886
187	0x3d3a73a8	0.045520455
188	0x3de32211	0.11090482
189	0xbe118394	-0.1421035
190	0xbe1b4e36	-0.15166554
191	0xbd567cfa	-0.05236528
192	0xbbb76022	-0.0055961767
193	0xbe3b43ed	-0.1828763
194	0xbc2f599d	-0.010702518
195	0x3e2f840a	0.17140213
196	0x3d5c28c8	0.05374983
197	0x3e172bda	0.14762822
198	0xbc119105	-0.008884673
199	0x3d2082ee	0.039187364
200	0xbe257398	-0.16157377
201	0xbe39f515	-0.18159898
202	0x3d159a05	0.036523838
203	0xbe74bdec	-0.23900574
204	0xbe07bf1c	-0.13256496
205	0xbe0e7297	-0.139109
206	0x3dde3270	0.10849464
207	0x3db18934	0.086687475
208	0x3e13a026	0.1441656
209	0xbe085dcc	-0.1331703
210	0x3cd0e9bc	0.025502078
211	0xbe51d72d	-0.2049224
212	0xbe2cbb66	-0.16868362
213	0xbd536c79	-0.05161712
214	0x3dff11e1	0.12454582
215	0xbdccdb33	-0.100027464
216	0x3cd849c5	0.026402364
217	0x3dab89f1	0.083759196
218	0x3e0a69f4	0.1351698
219	0x3da0f73b	0.078596555
220	0x3e2b54de	0.16731593
221	0xbe5d53a5	-0.21613939
222	0xbe16b26d	-0.14716502
223	0xbdf3d0b5	-0.11905042
224	0x3e2b37d8	0.16720521
225	0x3d11db97	0.035609808
226	0xbe0ae3b5	-0.13563426
227	0x3dcec7e1	0.100967176
228	0xbe6eb08b	-0.23309533
229	0x3d80f6a4	0.06297043
230	0xbe4e2606	-0.20131692
231	0xbd4ee17d	-0.05050801
232	0xbdaea40e	-0.08527385
233	0xbe162846	-0.146638
234	0x3e3ea7cb	0.18618695
235	0xbd4b70c8	-0.049668103
236	0x3d3e52b0	0.046465576
237	0xbe018172	-0.12647036
238	0x3dc36240	0.09540224
239	0x3b552c75	0.003252772
240	0x3e00b967	0.12570725
241	0x3cc74c4b	0.024328372
242	0x3d40068c	0.046881244
243	0xbe0395ac	-0.12850064
244	0xbd087e1f	-0.033323403
245	0x3dff0df9	0.12453837
246	0xbbfee02a	-0.0077781873
247	0x3e2d5566	0.16927108
248	0x3dce390b	0.10069474
249	0x3da5a2d9	0.08087701
250	0x3dc8b1b9	0.09799523
251	0x3d10e915	0.035378534
252	0x3dc27a48	0.094959795
253	0xbda3560d	-0.07975397
254	0x3e224b25	0.15848978
255	0xbd824d72	-0.06362428

conv2.bias f4 [64]
0	0x3bbe24ce	0.0058027273
1	0xbbd07820	-0.0063619763
2	0x3c140878	0.009035222
3	0x3d660c86	0.056164287
4	0x3c060179	0.008179062
5	0x3c5d3240	0.01350075
6	0x3c75f658	0.015012346
7	0x3d0da819	0.03458414
8	0x3a4166cd	0.0007377684
9	0x3c2799e6	0.010229563
10	0x3c5dd932	0.013540553
11	0x3c962dff	0.01833248
12	0x3d2366f0	0.03989309
13	0x3c798d08	0.015231378
14	0x3d105e61	0.035246257
15	0x3c1c725a	0.009548748
16	0x3c3c6654	0.011499006
17	0xba32bc7c	-0.00068182475
18	0x3d77e139	0.060517523
19	0x3c55a99a	0.013040924
20	0x3bc8b868	0.0061254986
21	0xbc1d0ea6	-0.009586012
22	0x3c37848b	0.011201034
23	0x3ce3a1ba	0.027787078
24	0x3c9a7967	0.018856717
25	0x3caffd5c	0.021483116
26	0x3c90d1f4	0.017678238
27	0xbb17fcbf	-0.002319142
28	0x3ba48b10	0.0050214604
29	0x3d1b3aa6	0.03789773
30	0x3c77c406	0.015122419
31	0x3d76bbec	0.06023781
32	0x3c362bb7	0.011118821
33	0xbb9d9e4d	-0.0048101307
34	0x3c3a9260	0.011387438
35	0x3c1732c9	0.009228417
36	0x3bcfea20	0.0063450485
37	0x3d5bfb25	0.053706307
38	0x3cdb933c	0.026803605
39	0x3ca2c3cc	0.019868754
40	0x3c6ee513	0.014580983
41	0x3c321370	0.010868892
42	0x3af87607	0.0018956073
43	0x3c28a56f	0.010293349
44	0x3c8d6959	0.017262148
45	0xbb01cc69	-0.0019805676
46	0x3be4acb6	0.0069785966
47	0x3cfdacd1	0.030966194
48	0x3bbe23a6	0.0058025895
49	0xbb1d2f96	-0.0023984662
50	0xbb9469e1	-0.0045292233
51	0x3cc8b765	0.024501512
52	0x3c2b78b4	0.01046579
53	0x3d86c086	0.0657969
54	0x3c0ecaee	0.008715374
55	0x3c1a7b7b	0.009428854
56	0x3bbe57fb	0.005808828
57	0x3c6af615	0.014340897
58	0xbb90e50c	-0.0044218358
59	0xbc998845	-0.018741736
60	0x3d080861	0.033211116
61	0x3c9f10a5	0.019417116
62	0x3c906eb0	0.017630905
63	0xbae8f68a	-0.001777367

conv2.lin.weight f4 [64, 64]
0	0x3e31c4ce	0.17360231
1	0xbe3db30b	-0.1852533
2	0xbdb16fdb	-0.08663913
3	0xbe0ec9ba	-0.1394414
4	0x3c826aa0	0.015919983
5	0x3c0d4b79	0.008623951
6	0xbdb1df2f	-0.08685147
7	0xbc3b7635	-0.011441757
8	0x3c3ccd6f	0.011523589
9	0xbd48c2eb	-0.049014013
10	0x3dfb88f3	0.1228198
11	0xbe30a2c9	-0.17249598
12	0x3dc2aeef	0.09506022
13	0x3c04504c	0.008075785
14	0xbdeab0ef	-0.11459529
15	0x3d1d2192	0.038362093
16	0x3e89145f	0.26773354
17	0xbe2c1d6e	-0.16808102
18	0x3bbe56a1	0.005808667
19	0xbdbedf36	-0.09319918
20	0x3e330954	0.17484027
21	0xbe1d161d	-0.15340467
22	0xbdac80fb	-0.084230386
23	0xbc477586	-0.012174016
24	0xbe62c719	-0.22146262
25	0xbe128a24	-0.14310509
26	0x3e94e858	0.29083514
27	0xbe5544b7	-0.20826994
28	0x3db0e525	0.08637456
29	0x3e44dfc8	0.19225991
30	0x3cb4a8b1	0.022053095
31	0x3d59177f	0.053000923
32	0xbe229ee5	-0.15880926
33	0xbe6b5ee4	-0.22985417
34	0xbe348b3f	-0.17631243
35	0xbe43f455	-0.19136174
36	0x3e1e1210	0.15436578
37	0xbda333d7	-0.07968872
38	0x3dc9cd41	0.09853602
39	0x3e204530	0.15651393
40	0xbe240442	-0.16017249
41	0xbe46daaf	-0.19419359
42	0x3e0f880a	0.14016739
43	0x3e3fde9f	0.18737267
44	0x3e2b35d1	0.16719748
45	0x3d97fd5f	0.074213736
46	0x3db98be4	0.09059885
47	0xbdd73631	-0.10508383
48	0x3db5ed24	0.088831216
49	0xbe0f6c43	-0.14006142
50	0x3d9533e9	0.07285292
51	0x3dc13c28	0.09435302
52	0x3dde91da	0.10867663
53	0xbddc8bfd	-0.10768888
54	0x3d909d76	0.07061283
55	0x3d424caa	0.047436394
56	0xbd32c545	-0.043645162
57	0x3e9a155e	0.30094427
58	0xbbaa5359	-0.005197924
59	0xbd836605	-0.06415943
60	0x3e31b718	0.17355001
61	0xbd6bdc68	-0.057583243
62	0xbc90630f	-0.01762536
63	0x3d8d275f	0.06892275
64	0xbd5da3a6	-0.054111145
65	0x3d9515d8	0.07279557
66	0xbe48f9b5	-0.19626506
67	0xbe191a54	-0.1495145
68	0xbd191f0c	-0.037383124
69	0xbca81f5f	-0.020522771
70	0xbd5aef2f	-0.05345076
71	0xbe17e647	-0.14833938
72	0x3e271b10	0.16318917
73	0xbdaabb2b	-0.08336481
74	0xbd1bc58d	-0.038030196
75	0x3e122263	0.1427093
76	0xbc31c05d	-0.010849086
77	0x3d89f0ec	0.06735405
78	0xbd78cef8	-0.060744256
79	0x3d53bd23	0.051694047
80	0x3e3a1338	0.18171394
81	0x3d699873	0.057030153
82	0xbe75a7e7	-0.23989831
83	0xbda1ccca	-0.079003885
84	0xbdbd6733	-0.09248199
85	0x3e3e630f	0.18592475
86	0xbc869109	-0.01642658
87	0x3d60be70	0.054869115
88	0x3e1a7664	0.15084225
89	0xbceeaece	-0.029136088
90	0xbcd63cf7	-0.026152117
91	0x3e4bdb0f	0.19907783
92	0x3d77b8eb	0.060479086
93	0xbdb1443c	-0.08655593
94	0xbe5346e7	-0.20632516
95	0xbd5426d5	-0.051794846
96	0xbe347e7d	-0.17626376
97	0xbdf4bc2c	-0.119499534
98	0xbe2c7169	-0.16840138
99	0xbe2f21c6	-0.17102727
100	0x3de40f70	0.11135757
101	0x3e1c133e	0.15241715
102	0x3e3f19dd	0.1866221
103	0xbe1cfa36	-0.15329823
104	0xbd321545	-0.043477315
105	0x3d071c83	0.032986175
106	0xbe5789d8	-0.21048677
107	0xbe659153	-0.22418718
108	0xbd6ffd74	-0.05859132
109	0x3d9e38fc	0.07725713
110	0xbda1a48f	-0.07892715
111	0xbe28e339	-0.16492929
112	0xbd9cd0c0	-0.076570034
113	0x3e2a1e53	0.1661313
114	0x3d81c680	0.06336689
115	0x3e15b8d9	0.14621295
116	0x3cb0d9f0	0.021588296
117	0xbd094f6e	-0.033523016
118	0x3e074bf3	0.13212566
119	0x3db4f687	0.08836084
120	0x3d2f8a60	0.042856574
121	0xbe2684b0	-0.16261554
122	0x3d8ba841	0.06819201
123	0x3c8f7bc9	0.01751508
124	0x3e46f010	0.19427514
125	0x3e3e8063	0.18603663
126	0x3e038b17	0.12846027
127	0x3e23c663	0.15993647
128	0x3d2814a4	0.04103531
129	0xbda17106	-0.07882886
130	0xbda37a17	-0.07982271
131	0xbd47614f	-0.048676785
132	0x3ddabdc6	0.10680728
133	0xbcb3c9c1	-0.02194679
134	0x3d4e838a	0.050418414
135	0xbe0d5a11	-0.13803889
136	0x3bf24846	0.0073938696
137	0x3de37759	0.11106748
138	0x3e3796d8	0.17928636
139	0xbd24428a	-0.04010252
140	0x3dee7d5b	0.116450034
141	0xbde5bd73	-0.11217775
142	0x3e2ce959	0.1688589
143	0x3d8275aa	0.06370099
144	0xbd055c69	-0.032558832
145	0xbd9fc238	-0.07800716
146	0x3e5a77fe	0.21334836
147	0xbc77ce0d	-0.01512481
148	0x3e279dbb	0.16368763
149	0x3e61ecfb	0.22063057
150	0xbe1969ad	-0.14981718
151	0xbca38db6	-0.019965034
152	0xbe6c095b	-0.23050444
153	0xbda4c2db	-0.08044978
154	0x3ded29ec	0.115802616
155	0x3e02babf	0.1276655
156	0x3d8a2698	0.067456424
157	0xbdd315ad	-0.10306869
158	0x3d7738a2	0.060356744
159	0x3de8ae36	0.11361353
160	0xbe5d7f3c	-0.21630567
161	0xbe64028f	-0.22266601
162	0xbe7b6203	-0.24549107
163	0xbe29401c	-0.16528362
164	0xbe01af3c	-0.12664503
165	0x3bee579e	0.0072736284
166	0x3e14bd64	0.14525372
167	0xbc75e24b	-0.015007566
168	0xbe682c5f	-0.22673176
169	0x3cccfe29	0.025023537
170	0x3e02fcb4	0.12791711
171	0x3e7fd32d	0.24982901
172	0xbe357a14	-0.1772235
173	0x3e77f92f	0.2421615
174	0xbc990e22	-0.018683497
175	0x3d9f577d	0.07780359
176	0x3e5312a9	0.20612587
177	0xbd63711f	-0.055527803
178	0xbe15c396	-0.14625391
179	0xbd5ce6fd	-0.053931225
180	0x3d072066	0.032989882
181	0x3deaee2d	0.1147121
182	0x3d65ae65	0.05607452
183	0x3e427871	0.18991257
184	0xbbcc64f5	-0.006237621
185	0xbc6d3054	-0.014476854
186	0x3d002b82	0.031291492
187	0x3e1862b7	0.14881407
188	0x3cad600a	0.021163959
189	0x3d78c039	0.060730193
190	0xbdfa0a9b	-0.12209054
191	0x3e4a1d73	0.19737796
192	0x3d5149fe	0.051095955
193	0x3db142a5	0.086552896
194	0x3e5035c5	0.20333011
195	0xbde1626e	-0.11005102
196	0x3e5bf2ed	0.21479388
197	0xbd47bdb1	-0.04876489
198	0xbd8d6283	-0.06903555
199	0x3d0382ed	0.032107282
200	0xbd6205c5	-0.055181284
201	0xbc0795d0	-0.008275464
202	0xbe32211f	-0.17395447
203	0xbdfef031	-0.124481566
204	0x3ca2b9b9	0.01986395
205	0xbe1c1146	-0.15240964
206	0x3e001223	0.12506919
207	0x3d48d145	0.0490277
208	0xbe32cad4	-0.17460185
209	0x3db02062	0.085999265
210	0xbdad4142	-0.084597126
211	0x3c500836	0.01269727
212	0xbd1e9fce	-0.03872662
213	0xbe9218e8	-0.28534627
214	0xbe10c012	-0.14135769
215	0x3e504a0e	0.2034075
216	0x3ea96f00	0.330925
217	0xbc0c2e5e	-0.008555977
218	0x3e62f877	0.22165094
219	0x3ba86384	0.0051388163
220	0xbe6651f3	-0.22492199
221	0xbddbcfac	-0.1073297
222	0x3b5e72e5	0.0033942994
223	0xbe836940	-0.25666237
224	0x3e987106	0.2977373
225	0x3e4a4a48	0.19754899
226	0x3dc92651	0.098217614
227	0x3e0f9a24	0.14023644
228	0xbe6c74c4	-0.23091418
229	0x3df63c98	0.12023276
230	0xbd18d225	-0.037309784
231	0xb9e82464	-0.000442776
232	0xbd1eb59f	-0.038747426
233	0xbe61d838	-0.22055137
234	0xbe6ea846	-0.23306379
235	0xbe216f03	-0.15765004
236	0xbe256f18	-0.1615566
237	0xbd646316	-0.05575856
238	0x3dde2e4c	0.10848674
239	0xbe4defd2	-0.20111015
240	0xbe3891f8	-0.18024433
241	0xbdac7123	-0.084200166
242	0xbe260f35	-0.16216739
243	0x3dd8eb93	0.10591807
244	0x3e0e0d24	0.138722
245	0x3db17df6	0.08666603
246	0xbe8ba4bc	-0.2727412
247	0xbe11560f	-0.14192985
248	0x3e2b660f	0.16738151
249	0x3d1e7e8b	0.0386949
250	0x3e5c8351	0.21534468
251	0x3e2b0f5c	0.16705078
252	0x3d157567	0.036488917
253	0x3e25b3bf	0.16181849
254	0xbe8b56f6	-0.27214783
255	0x3e15a4e9	0.1461369

edge_mlp.0.weight f4 [64, 128]
0	0xbd6532a0	-0.055956483
1	0x3b47fcfc	0.003051578
2	0x3d0aafb3	0.033858966
3	0x3e074718	0.13210714
4	0xbdc6a751	-0.09699882
5	0xbd8efb8f	-0.06981575
6	0x3c0af281	0.008480669
7	0x3d834242	0.06409122
8	0x3ccbb357	0.02486579
9	0xbd017b37	-0.031611647
10	0xbdb39a5d	-0.08769677
11	0xbdc2acff	-0.09505653
12	0xbdda0325	-0.10645131
13	0x3d90ec9a	0.07076378
14	0xbcba4c78	-0.022741541
15	0x3c5c01f6	0.013428202
16	0xbd6b0dc3	-0.05738617
17	0xbc82b1d2	-0.015953932
18	0xbe010275	-0.12598594
19	0x3d90cb72	0.07070054
20	0xbcd786e9	-0.026309447
21	0x3cf4eb1c	0.029897265
22	0xbdcb5ca4	-0.09929779
23	0x3cdf4e63	0.027259057
24	0xbe2d30ee	-0.16913196
25	0xbd9d1b4c	-0.07671222
26	0xbd608b2e	-0.054820232
27	0x3d9b92ad	0.075963356
28	0xbdaff6aa	-0.08591969
29	0xbc8acdff	-0.01694393
30	0xbcabacb7	-0.02095638
31	0xbde67370	-0.11252487
32	0xbc364da8	-0.011126913
33	0x3cc5b9b3	0.0241364
34	0x3d0dc8da	0.034615375
35	0xbdef9195	-0.116976894
36	0xbd042b26	-0.032267712
37	0x3d8a5d49	0.06756074
38	0x3d4b1291	0.049578253
39	0xbd774fdb	-0.06037889
40	0x3d472cd4	0.048626736
41	0xbc99382d	-0.018703545
42	0x3c9ad510	0.018900424
43	0xbdd980ea	-0.106202915
44	0xbdcf1703	-0.10111811
45	0xbdcd3a96	-0.1002094
46	0xbd4fcbdb	-0.05073152
47	0xbcbebe3a	-0.023284066
48	0xbc976a72	-0.018483374
49	0x3d4fafdc	0.050704822
50	0x3d87076e	0.06593214
51	0x3c93135a	0.017953563
52	0xbdda07e7	-0.106460385
53	0xbdf3ad41	-0.1189828
54	0xbce2c32c	-0.027680956
55	0xbc14dacc	-0.009085368
56	0x3cd36d6f	0.025809018
57	0xbd40590c	-0.04695992
58	0x3db1acb9	0.08675522
59	0xbbdc645b	-0.0067258305
60	0x3d0cd14e	0.034379296
61	0x3dd01935	0.10161058
62	0xbd5006cd	-0.050787736
63	0xbdcbdda9	-0.09954388
64	0xbdb648b0	-0.08900583
65	0xbc56efcd	-0.013118696
66	0x3ccf7dc6	0.025328528
67	0xbe0afdf7	-0.13573442
68	0x3c2bee48	0.010493822
69	0xbd81a2b8	-0.06329864
70	0x3d798c28	0.06092468
71	0x3dcd4aad	0.10024009
72	0xbdda3d4e	-0.10656224
73	0x3d109d95	0.035306532
74	0xbd316941	-0.04331327
75	0xbdb0ddd7	-0.086360626
76	0xbd5bd1b3	-0.05366678
77	0xbcf7fe51	-0.030272635
78	0x3c9b877e	0.018985506
79	0xbc913a6d	-0.017728055
80	0xbd44dcd5	-0.048062164
81	0xbd0a4d62	-0.033765204
82	0xbd6fbd8f	-0.058530387
83	0x3d2bbafc	0.04192637
84	0x3d96d8db	0.07365581
85	0xbd6faeeb	-0.058516424
86	0xbcbf196a	-0.023327548
87	0xbda4a9a8	-0.08040172
88	0xbe228bf7	-0.15873705
89	0x3d473cba	0.048641898
90	0xbdac17e3	-0.084029935
91	0x3d7acc95	0.06123026
92	0xbd81927d	-0.063267685
93	0xbd9aee80	-0.075650215
94	0xbd424625	-0.047430176
95	0xbe05eb9c	-0.13078159
96	0x3dce4b94	0.10073009
97	0x3cceda98	0.025250718
98	0x3d68c821	0.056831483
99	0xbdd80145	-0.10547117
100	0xbd089e3e	-0.033354037
101	0xbd5314bd	-0.05153345
102	0x3c6b87aa	0.014375607
103	0x3d0a0b6e	0.033702306
104	0x3db1b5b3	0.086772345
105	0xbd920357	-0.07129543
106	0xbc89c4d3	-0.016817486
107	0xbd3f29c1	-0.04667068
108	0xbcd883a3	-0.026429957
109	0xbe079313	-0.13239698
110	0xbd82f4e1	-0.06394363
111	0x3c440a28	0.011965312
112	0x3c3db935	0.011579801
113	0x3d34e20f	0.0441609
114	0x3b407b09	0.002937021
115	0x3d95c78e	0.07313453
116	0x3c5b4da8	0.013385214
117	0xbe103537	-0.140828
118	0x3c14fc1d	0.009093312
119	0x3daef385	0.085425414
120	0x3d2ea100	0.04263401
121	0x3c8f33b9	0.017480718
122	0x3c583663	0.013196561
123	0x3d459e86	0.048246883
124	0xbc981671	-0.018565388
125	0xbd557511	-0.052113596
126	0xbd47847b	-0.048710328
127	0x3c14fd95	0.009093662
128	0xbd6c45f6	-0.057683907
129	0xbda0dad7	-0.078542404
130	0xbda96a72	-0.08272256
131	0x3e272538	0.16322792
132	0x3ce0d469	0.027445035
133	0xbc442d0b	-0.01197363
134	0x3ba076f4	0.004896993
135	0x3d276fe8	0.040878206
136	0xba0c8b8c	-0.000536137
137	0xbd3c0aae	-0.045908622
138	0xbda70df5	-0.08156959
139	0xbdbea31d	-0.09308455
140	0xbde13d0f	-0.10997974
141	0x3d81662a	0.063183144
142	0x3d923f1b	0.07140943
143	0xbd33e1a1	-0.04391635
144	0x3dad5af3	0.08464613
145	0x3d5979e8	0.053094774
146	0x3bdcad81	0.0067345505
147	0x3cbca694	0.02302865
148	0xbcad0885	-0.021122226
149	0xbda8f4f1	-0.08249844
150	0xbd0cbf96	-0.034362398
151	0x3cc09d94	0.02351264
152	0xbe0a179f	-0.13485573
153	0xbd906f9f	-0.0705254
154	0x3d8f8642	0.070080295
155	0xbd2424e1	-0.040074233
156	0x3bdeb61d	0.006796612
157	0xbcac5ad7	-0.02103941
158	0xbd3a429e	-0.045473687
159	0xbe119349	-0.14216341
160	0x3da003ba	0.07813211
161	0x3d9a46b4	0.07533017
162	0xbd1ad41d	-0.037799943
163	0xbce1d79f	-0.027568636
164	0xbc608a93	-0.013704914
165	0x3dbfc341	0.093634136
166	0x3db90733	0.09034576
167	0xbd5c8f2f	-0.053847488
168	0xbd4908d7	-0.049080696
169	0xbd737eae	-0.059446983
170	0x3dbeb6d5	0.09312216
171	0xbdd0ec1f	-0.102012865
172	0xbde1c7e8	-0.11024457
173	0xbd8675da	-0.06565447
174	0xbd2a7702	-0.0416174
175	0x3cdb6998	0.02678375
176	0x3d78fda5	0.06078877
177	0xbd14e951	-0.03635532
178	0x3d31539c	0.043292627
179	0xbc2b5a6d	-0.010458571
180	0xbd249361	-0.040179614
181	0xbdf9a0ee	-0.12188898
182	0xbd7df648	-0.06200245
183	0xbd8dfc6a	-0.0693291
184	0x3d906b71	0.07051743
185	0xbcda4243	-0.026642924
186	0x3dcff330	0.10153806
187	0xbcc06066	-0.023483466
188	0xbca0117c	-0.019539587
189	0x3d91bf54	0.07116571
190	0x3c3462d1	0.011009888
191	0xbc613091	-0.013744489
192	0xbd1da615	-0.038488466
193	0xbc1f2b99	-0.009714984
194	0xbd8bf398	-0.06833571
195	0xbe007efc	-0.1254844
196	0xbdc5a2e4	-0.096502095
197	0xbe091489	-0.1338674
198	0x3c004350	0.007828549
199	0xbd4e616f	-0.05038589
200	0x3d073494	0.033009127
201	0x3d490301	0.04907513
202	0x3c8d8fad	0.017280424
203	0xbd6bbd06	-0.057553314
204	0xbc6d3e0c	-0.014480125
205	0x3d95d203	0.07315447
206	0xbcc3d8f5	-0.023907164
207	0x3ca30578	0.019900069
208	0x3d997191	0.07492364
209	0x3d8d926a	0.06912692
210	0xbdac6317	-0.084173374
211	0x3cf0d94c	0.02940049
212	0x3bd69acd	0.0065492154
213	0xbc971ff7	-0.01844786
214	0x3d0236a8	0.031790406
215	0xbda8fea1	-0.082516916
216	0xbe2f3dbb	-0.17113392
217	0xbd95dad0	-0.07317126
218	0xbd53bde8	-0.05169478
219	0x3c321413	0.010869044
220	0xbd1f46ff	-0.038886067
221	0xbdfab039	-0.12240643
222	0xbd83493e	-0.06410454
223	0xbd99e8ce	-0.07515107
224	0x3dcde819	0.10054035
225	0xbc4a9140	-0.012363732
226	0xbd690612	-0.056890555
227	0xbe1cbe3c	-0.15306944
228	0xbc93227f	-0.017960785
229	0x3d517f2f	0.051146682
230	0x3da10134	0.078615576
231	0x3cb40238	0.021973714
232	0x3d392dde	0.045209758
233	0xbd1767e5	-0.036964316
234	0xbda0c60f	-0.07850277
235	0xbd90f930	-0.07078779
236	0xbe10c315	-0.14136918
237	0xbd232617	-0.039831247
238	0x3c74eb1f	0.014948635
239	0x3c9be7a3	0.019031351
240	0x3aff502f	0.0019478853
241	0xbc46e154	-0.012138683
242	0xbda8c180	-0.08240032
243	0x3c897bfa	0.01678275
244	0xbc94d431	-0.018167587
245	0xbdac29f0	-0.084064364
246	0xbdbc998d	-0.09208975
247	0x3cc42691	0.023944171
248	0xbd6516b5	-0.05592986
249	0x3d6041c3	0.054750215
250	0x3d872987	0.065997176
251	0x3d4cd2d4	0.05000575
252	0xbc8879bc	-0.01665961
253	0x3dcb24d0	0.09919131
254	0xbc35c039	-0.011093193
255	0x3bd5c4b0	0.006523691

edge_mlp.0.bias f4 [64]
0	0xbd000bff	-0.03126144
1	0x3cdfe64c	0.027331494
2	0xbcead745	-0.028667102
3	0xbda71aa3	-0.081593774
4	0x3cb1c3c3	0.021699792
5	0xbd9383bb	-0.0720286
6	0x3d1464cf	0.03622895
7	0x3b654a9e	0.0034987102
8	0x3d78c9ea	0.060739435
9	0xbd651503	-0.05592824
10	0xbc693371	-0.014233456
11	0x3c9258ed	0.017864669
12	0x3d3246d3	0.043524574
13	0x3cf85618	0.03031449
14	0xbd5427da	-0.051795818
15	0x3d9b5c18	0.07585925
16	0xbc983988	-0.01858212
17	0x3d058233	0.03259487
18	0xbd9ce74f	-0.07661306
19	0x3d93d8c7	0.07219081
20	0x3c677919	0.014127993
21	0x3d49fa7a	0.04931114
22	0x3cb9d25b	0.022683313
23	0x3cfa7296	0.030572217
24	0x3d2dbe55	0.042417843
25	0xbcf19e0d	-0.02949431
26	0x38d1a4e1	9.996608e-05
27	0x3d571de6	0.052518748
28	0xbc71f5ce	-0.014768077
29	0x3d54ed30	0.051984012
30	0x3c6d5dba	0.014487678
31	0x3daeeb39	0.08540959
32	0xbda075dd	-0.07834981
33	0x3cecd6f6	0.028911095
34	0x3dbc5759	0.09196348
35	0x3d4c109f	0.04982054
36	0x3db1ea5d	0.086872794
37	0x3d1b1f5d	0.037871707
38	0x3c99f90c	0.018795513
39	0xbdb84305	-0.08997158
40	0xbd6eff68	-0.058349043
41	0xbd8784a7	-0.06617098
42	0x3d834938	0.0641045
43	0xbdc263c4	-0.09491685
44	0xbd8b9a50	-0.06816542
45	0x3d8259e0	0.063647985
46	0xbc241bdd	-0.010016409
47	0xbd1e987b	-0.038719635
48	0xbd455dea	-0.048185267
49	0x3d9fe721	0.07807756
50	0x3d12a3c0	0.035800695
51	0x3d0e98bb	0.034813624
52	0xbc0e34ea	-0.008679608
53	0xbca66012	-0.020309482
54	0xbcaeed76	-0.021353465
55	0x3d0b2484	0.03397037
56	0xbd11a3db	-0.035556655
57	0x3da1dd50	0.0790354
58	0x3d07e4d3	0.03317721
59	0x3d703509	0.05864433
60	0xbd7a2d96	-0.06107863
61	0x3b038455	0.002006789
62	0xbc41d918	-0.011831544
63	0x3d563831	0.052299682

edge_mlp.2.weight f4 [32, 64]
0	0xbde21824	-0.11039761
1	0xbe2a73c5	-0.16645725
2	0x3d5d5d09	0.054043803
3	0xbdced94e	-0.10100041
4	0xbd38cdea	-0.04511825
5	0xbe00d42e	-0.1258094
6	0xbdedbc4b	-0.1160818
7	0xbcd36ce0	-0.025808752
8	0x3da5069a	0.080579
9	0x3d004136	0.03131219
10	0x3e1d5bfc	0.1536712
11	0xbd1e1f3d	-0.03860401
12	0x3cfbe0ce	0.030746844
13	0xbdf5739f	-0.119849436
14	0x3da7ce8d	0.08193693
15	0x3ded9fe1	0.1160276
16	0xbd2b4208	-0.04181102
17	0xbd46ff99	-0.0485836
18	0x3da4928d	0.08035765
19	0xbd955e30	-0.072933555
20	0xbda2ed3f	-0.07955407
21	0x3e036d41	0.12834646
22	0x3dfa45fc	0.1222038
23	0x3dcb885a	0.09938116
24	0xbdf38b7e	-0.118918404
25	0x3e243ebb	0.16039555
26	0xbd7371a6	-0.059434555
27	0x3e184438	0.14869773
28	0xbdc0dfa8	-0.09417659
29	0xbd736847	-0.05942562
30	0xbd75489c	-0.0598837
31	0x3e016888	0.12637532
32	0xbe26091a	-0.1621441
33	0x3d6133a9	0.054980908
34	0xbc6cac71	-0.01444541
35	0xbda22d5c	-0.07918808
36	0x3e2ecf23	0.17071204
37	0x3e1e6c77	0.15471064
38	0x3cc56f39	0.024100887
39	0xbd0aaa3e	-0.03385376
40	0xbd62dc9b	-0.055386167
41	0xbe154d14	-0.14580184
42	0x3de22da5	0.11043862
43	0xbce81e73	-0.028334832
44	0x3d873ebc	0.066037625
45	0xbd5cb894	-0.053886965
46	0xbdca7cf0	-0.09887111
47	0xbd1ff531	-0.039052192
48	0x3da2e6f7	0.07954209
49	0xbd5985e6	-0.05310621
50	0x3d8f5f09	0.070005484
51	0x3db2588c	0.08708295
52	0x3e1fd30c	0.15607852
53	0x3ccec892	0.025242124
54	0xbd8680b6	-0.065675184
55	0xbdd0dfaa	-0.101989105
56	0xbcfdddd6	-0.030989569
57	0xbd2e9499	-0.042622183
58	0x3dd957a2	0.10612418
59	0xbe04d408	-0.12971509
60	0x3ccdf320	0.025140345
61	0xbe22bd0c	-0.15892428
62	0x3d8770dd	0.06613324
63	0xbb7c557b	-0.0038503099
64	0x3e03295f	0.1280875
65	0x3dea8e27	0.11452895
66	0xbd728fa6	-0.059219025
67	0x3dc4b0a0	0.09604001
68	0xbd4a6e43	-0.04942156
69	0x3e15ffde	0.14648387
70	0x3ded18f2	0.115770236
71	0xbdb827d9	-0.08991975
72	0xbd7f5fe7	-0.06234732
73	0x3d4f28f4	0.050576165
74	0xbd777570	-0.06041473
75	0x3df9778e	0.12181006
76	0xbc22fdb7	-0.009948186
77	0x3dc0fad9	0.094228454
78	0x3db76fe5	0.08956889
79	0x3d8fbcea	0.070184544
80	0xbe136594	-0.14394218
81	0x3da34de7	0.07973843
82	0xbcac91f9	-0.021065699
83	0x3d936677	0.07197278
84	0xbce8f059	-0.02843492
85	0x3c47713f	0.012172996
86	0xbe1cd96c	-0.15317315
87	0x3db56727	0.088575654
88	0x3da33af6	0.0797023
89	0xbe1d9b2e	-0.15391228
90	0x3d2a85f6	0.04163166
91	0xbd015393	-0.031573843
92	0xbda3a54a	-0.07990511
93	0x3dc58991	0.09645379
94	0x3c36cd98	0.011157416
95	0xbd427222	-0.047472127
96	0xbc731f07	-0.01483894
97	0x3d090d46	0.033459924
98	0xbb7a921d	-0.0038234063
99	0xbdbcf223	-0.092258714
100	0xbdf0f52f	-0.11765515
101	0x3be3b3d6	0.0069489283
102	0xbd340fa2	-0.04396022
103	0x3d3b56cc	0.045737073
104	0xbdf61030	-0.12014806
105	0x3d8961ab	0.06708082
106	0x3cb20953	0.021732962
107	0x3dba987b	0.091111146
108	0xbd5b1b07	-0.053492572
109	0x3c0f82cd	0.008759213
110	0xbc1bd724	-0.009511743
111	0xbce960a5	-0.028488467
112	0x3ca3509f	0.019935904
113	0xbc537d72	-0.012908326
114	0x3daa670a	0.083204344
115	0x3e0a515a	0.13507596
116	0xbdcad4b3	-0.099038504
117	0x3d02b1f1	0.03190798
118	0xbda50a57	-0.08058613
119	0xbdd6d63a	-0.10490079
120	0x3d0387dd	0.03211199
121	0xbe25184c	-0.1612255
122	0x3cefc6e9	0.029269652
123	0xbd5d0e68	-0.053968817
124	0xbde6a594	-0.1126205
125	0x3c2c1f19	0.010505461
126	0xbdc7aba1	-0.097495325
127	0x3cb2bc1b	0.021818211
128	0x3cd211b2	0.025643203
129	0xbcd4a561	-0.025957765
130	0x3c538093	0.012909072
131	0xbdb1569c	-0.086590976
132	0xbd41e170	-0.047334135
133	0xbd8c6c33	-0.06856575
134	0xbddf7314	-0.10910621
135	0xbe040c9e	-0.12895438
136	0xbe17b4ba	-0.14815035
137	0xbe0ddb5d	-0.13853212
138	0x3e006e28	0.12542021
139	0xbe117398	-0.14204252
140	0x3e1c2308	0.15247738
141	0xbe150aab	-0.14554851
142	0xbdae9dbe	-0.08526181
143	0x3d9f892e	0.07789837
144	0x3dea520e	0.11441432
145	0x3d5d1f23	0.053984772
146	0xbd22ac8d	-0.03971534
147	0xbd0ee14e	-0.034882836
148	0x3d3b75f2	0.04576678
149	0xbd7d726d	-0.061876703
150	0x3e07d513	0.13264875
151	0xbbbb790a	-0.005721216
152	0xbdb6256d	-0.08893857
153	0xbd3bbbdd	-0.045833457
154	0xbdc5ca62	-0.09657742
155	0x3e0f051a	0.1396679
156	0xbcde395f	-0.027126966
157	0x3d634b27	0.055491593
158	0x3d19fd08	0.037594825
159	0xbdc88204	-0.097904235
160	0xbd212290	-0.039339602
161	0x3e08b8a2	0.13351682
162	0x3d296710	0.041358054
163	0x3c130125	0.008972441
164	0xbd7c956c	-0.061665937
165	0xbd1e73be	-0.0386846
166	0xbd6ef3eb	-0.058338087
167	0xbdcf18a0	-0.10112119
168	0x3c978042	0.018493775
169	0xbcfbfc38	-0.030759916
170	0x3e00bed0	0.12572789
171	0xbde782f4	-0.11304274
172	0x3c10a355	0.008828004
173	0xbd2d6f9d	-0.04234277
174	0x3d507b34	0.050898746
175	0xbd28f02b	-0.041244667
176	0xbcf7ae57	-0.030234499
177	0x3d68f1ac	0.0568711
178	0x3b849a9c	0.004046751
179	0x3921e1ee	0.00015438322
180	0xbdc3c0c5	-0.09558252
181	0x3d2b131f	0.041766282
182	0xbd8de07e	-0.06927584
183	0x3cc8e5b7	0.0245236
184	0x3d4b92df	0.049700614
185	0x3e0fd77b	0.14047043
186	0xbd30e2ff	-0.04318523
187	0xbe016bcb	-0.12638776
188	0x3db285a3	0.087168954
189	0x397a43c7	0.00023867107
190	0x3bd5b4b6	0.0065217866
191	0xbde16f77	-0.11007588
192	0x3bfa7910	0.0076438263
193	0x3daeee58	0.08541554
194	0xbda84fed	-0.0821837
195	0xbb9218f6	-0.004458542
196	0xbdaca3e5	-0.08429698
197	0x3bc12f5e	0.005895539
198	0x3d5f82af	0.05456799
199	0x3d034ae3	0.03205384
200	0x3e170f53	0.1475194
201	0x3d7a7a7b	0.061151963
202	0xbe252416	-0.16127047
203	0x3d57102e	0.052505665
204	0xbdb20c44	-0.08693746
205	0x3dc2b57f	0.09507274
206	0xbd5d918b	-0.05409388
207	0x3a9ae403	0.001181722
208	0xbe062a67	-0.13102113
209	0xbda80135	-0.08203355
210	0xbb8d4e6a	-0.004312326
211	0xbd1ffa29	-0.03905693
212	0x3d6a1472	0.057148404
213	0xbd71c167	-0.059022333
214	0xbe1351d7	-0.14386688
215	0x3db8707f	0.09005832
216	0x3dec0764	0.11524847
217	0xbd661794	-0.05617483
218	0x3da27154	0.07931772
219	0xbe098587	-0.13429843
220	0xbda7252a	-0.08161385
221	0x3ddc2457	0.10749119
222	0xbdcb5c0c	-0.09929666
223	0xbcc36069	-0.023849683
224	0x3e216b28	0.15763533
225	0x3dadcf36	0.08486788
226	0xbdaffdc8	-0.08593327
227	0xbd01d501	-0.031697277
228	0xbcf97345	-0.030450473
229	0xbd36827e	-0.04455804
230	0x3d1ba7ab	0.038001698
231	0x3e05ee1f	0.13079117
232	0x3db4687d	0.08808992
233	0xbda9ecfb	-0.082971536
234	0x3dc24b6d	0.094870426
235	0x3dd4e351	0.1039492
236	0xbde16b6f	-0.110068195
237	0xbd756ca0	-0.059918046
238	0xbddd2822	-0.1079867
239	0x3ce550ee	0.027992692
240	0x3db3dfc5	0.08782915
241	0xbd33dfe5	-0.043914694
242	0x3dad0530	0.08448255
243	0x3d884b16	0.066549465
244	0xbc18c701	-0.00932479
245	0xbdbaa895	-0.09114186
246	0x3cdd0fcb	0.02698507
247	0x3d148afb	0.036265355
248	0xbdfb776f	-0.122786395
249	0xbd8f9149	-0.07010133
250	0xbdf86e4e	-0.12130414
251	0x3e321219	0.17389716
252	0xbe08465e	-0.13308093
253	0x3e13179a	0.14364472
254	0xbe0ae589	-0.13564123
255	0xbde834f6	-0.113382265

edge_mlp.2.bias f4 [32]
0	0xbd775570	-0.060384214
1	0xbd1294c9	-0.035786424
2	0x3deffa7a	0.117176965
3	0x3d35f584	0.044423595
4	0xbd872d4b	-0.06600436
5	0x3dba7d9c	0.09105989
6	0x3cbf6ab5	0.023366312
7	0x3ca2a67d	0.019854778
8	0xbc263267	-0.010143853
9	0xbd3ac4ab	-0.045597713
10	0x3d05fdcc	0.032712743
11	0x3ca42c98	0.020040795
12	0x3bd78f8e	0.0065783923
13	0x3d5691e5	0.05238523
14	0xbdc9044b	-0.09815272
15	0x3ddcb773	0.10777178
16	0xbdded40f	-0.10880291
17	0xbbb44e06	-0.005502465
18	0x3d29535e	0.04133927
19	0x3ddbddb8	0.10735649
20	0x3d824e63	0.06362607
21	0xbd315c34	-0.043300822
22	0x3c96f1fb	0.018425932
23	0xbd94dc28	-0.07268554
24	0xbdeeb5d1	-0.116557725
25	0xbc94a295	-0.018143931
26	0x3d443bb6	0.047908507
27	0xbdce8440	-0.100838184
28	0xbdc166a2	-0.09443404
29	0x3d0b6654	0.034033135
30	0x3d04ac7f	0.032391068
31	0xbdb158fe	-0.08659552

edge_mlp.3.weight f4 [2, 32]
0	0x3d7e1844	0.06203486
1	0x3d16fe02	0.036863334
2	0xbd801f5d	-0.06255982
3	0x3e427b48	0.1899234
4	0xbd9ed076	-0.077546045
5	0x3dd53f7c	0.10412499
6	0x3c568bd7	0.013094864
7	0x3d4b8a3f	0.04969239
8	0x3ce0080c	0.027347587
9	0x3ddf329e	0.10898326
10	0x3e332526	0.1749464
11	0x3dfe8364	0.124274045
12	0x3e00cb17	0.12577473
13	0x3e04d3bb	0.12971394
14	0xbe189294	-0.14899665
15	0xbda3a866	-0.07991104
16	0xbe0cea64	-0.13761288
17	0xbe6117a9	-0.21981682
18	0xbe165ada	-0.14683095
19	0x3e5b2bd8	0.21403444
20	0xbe198f7d	-0.14996143
21	0xbd10ad69	-0.035321627
22	0x3cad79cc	0.021176241
23	0x3d639980	0.05556631
24	0x3e194623	0.14968161
25	0xbdb88446	-0.09009604
26	0x3caaee05	0.02086545
27	0x3e296d70	0.16545653
28	0xbdd9cd08	-0.1063481
29	0x3e32bf4c	0.17455786
30	0xbb79ccd3	-0.003811647
31	0x3da909de	0.08253835
32	0x3e59ae4d	0.21257897
33	0xbdb799f3	-0.0896491
34	0x3de7cf5b	0.11318847
35	0xbd92fdd0	-0.07177317
36	0x3c972403	0.018449789
37	0xbd55e99b	-0.052224737
38	0x3e21a238	0.15784538
39	0xbe41fd8f	-0.18944381
40	0xbe4e6152	-0.20154312
41	0xbe0f348c	-0.13984889
42	0xbe4b5e9b	-0.19860308
43	0xbe58198c	-0.21103495
44	0xbc14f3ac	-0.009091299
45	0x3d9bc138	0.07605213
46	0x3e602e5f	0.21892689
47	0x3dba651f	0.091013186
48	0x3c20c613	0.00981285
49	0x3c546c4a	0.012965271
50	0x3e09baae	0.13450119
51	0xbc997ab2	-0.018735263
52	0x3e3ba81b	0.18325846
53	0x3e2ca686	0.16860399
54	0x3cab8080	0.020935297
55	0x3e0891be	0.13336846
56	0x3d1350a2	0.03596557
57	0xbe1e87ca	-0.15481487
58	0xbdb29ab6	-0.08720915
59	0x3c28b6f1	0.010297523
60	0xbde5c6ff	-0.11219596
61	0xbd218c08	-0.039440185
62	0x3e012210	0.1261065
63	0xbe3b250e	-0.18275854

edge_mlp.3.bias f4 [2]
0	0x3e0253fb	0.12727349
1	0x3e0c1f53	0.13683824
