output/directed_G_False/best_model.pt (torch, 95330 bytes, 10 tensors)

conv1.bias f4 [64]
0.002471586 0.0046112756 -0.023251835 -0.0153357275 0.021250652 -0.006872128 0.022700548 0.024396982
0.0002960898 0.026050882 0.00844792 0.024227493 -0.020060824 0.03141131 0.022154056 0.012464875
0.025255365 0.017391387 0.024796933 -0.01035183 0.026419204 -0.0015850868 0.008079575 0.035221398
0.03311339 -0.0048305695 0.014806125 0.02196903 0.025370913 -0.0061100433 -0.005251625 -0.0011478624
0.009524071 0.028703248 -0.022901364 -0.006858788 0.023325073 -0.014084972 0.0073080566 0.0073554195
0.026782665 0.008405232 0.02293328 0.029215273 0.0281547 0.016332276 0.0022690378 0.022348484
0.017235069 0.018270956 0.016676629 0.024700096 0.01508271 0.019010855 0.0054586492 0.0017886059
0.004765835 0.02432039 0.018285183 -0.010240289 0.0034002997 0.027971407 0.002504178 0.023536716
00000000: 55fa 213b 2f1a 973b a27a bebc b442 7bbc
00000010: d915 ae3c 972f e1bb 80f6 b93c 2edc c73c
00000020: 803c 9b39 a968 d53c 2569 0a3c bc78 c63c
00000030: 9956 a4bc 25a9 003d 6c7c b53c 7a39 4c3c
00000040: 57e4 ce3c 6278 8e3c f022 cb3c b99a 29bc
00000050: 166d d83c b0c2 cfba 3260 043c 5044 103d
00000060: e8a1 073d c149 9ebb 6495 723c 65f8 b33c
00000070: a9d6 cf3c c236 c8bb d315 acbb df73 96ba
00000080: d90a 1c3c 1323 eb3c a49b bbbc afbf e0bb
00000090: 3914 bf3c a8c4 66bc 6c78 ef3b bb05 f13b
000000a0: 5267 db3c 19b6 093c 93de bb3c de54 ef3c
000000b0: afa4 e63c 44cb 853c 23b4 143b 2b14 b73c
000000c0: 8f30 8d3c f9ac 953c 6d9d 883c db57 ca3c
000000d0: 791d 773c a7bc 9b3c 78de b23b a86f ea3a
000000e0: b92a 9c3b 8e3b c73c cfca 953c e3c6 27bc
000000f0: 90d7 5e3b 4b24 e53c 231d 243b 12d0 c03c

conv1.lin.weight f4 [64, 128]
0.11318483 0.14050336 0.07619652 0.11965636 -0.13784322 0.17729242 -0.17972068 0.15187036
-0.1352 -0.028111355 0.071438104 0.14144535 -0.06356312 0.17502211 -0.09846947 0.15185241
0.20018569 0.1848569 -0.089703 -0.1175421 0.1951674 0.14231448 0.07903909 0.16057348
-0.017485823 -0.13032523 -0.18498659 0.05995657 0.030844048 -0.17968956 -0.053526208 -0.03432886
0.13644224 -0.036553103 -0.07949509 -0.11094529 -0.0028176822 -0.008527529 0.15568942 0.07557098
-0.11445844 -0.006539015 -0.16015375 0.027376276 -0.026491549 -0.07795983 0.018998396 -0.040720493
-0.014293945 -0.15881942 -0.14402843 0.0043795994 0.013211973 0.11460697 0.12723309 -0.05168678
0.050787807 0.17880327 0.0078071416 0.009684676 -0.030747607 -0.15843925 -0.08793028 0.104412004
0.11925188 -0.016115269 -0.08059346 0.0040265457 0.053754482 -0.16814846 0.015602321 0.005118254
0.033659015 -0.010251672 0.10219603 0.13141964 -0.15511625 -0.024097804 -0.14394318 0.09319207
-0.18931526 -0.07893774 0.08334556 0.102488264 0.16585933 0.059271146 -0.081893995 0.108547024
-0.02619436 -0.19223274 0.0059079933 -0.12170041 0.070098184 -0.01422595 0.07846049 0.010927825
0.07898878 -0.16247728 0.015867565 -0.18611036 0.035497464 0.08486585 -0.10457769 0.11790489
-0.1864362 0.07950835 -0.16203097 0.14002885 -0.037368998 0.17043489 0.1454926 0.04499486
-0.1307078 -0.18793246 -0.08747156 0.048820745 -0.06534633 0.076028034 -0.09750452 -0.12777938
0.05892752 -0.056571867 0.09150195 -0.08306434 0.089686476 -0.04267599 0.18277049 0.04950834
0.040934652 0.15310867 0.15048872 0.1042231 0.07722035 -0.010543861 -0.16755715 0.04301063
0.11654639 0.052991737 -0.1026631 -0.111889854 0.10616749 -0.0646577 0.13032472 0.09284254
0.14078651 -0.03159929 -0.17547446 0.13223594 -0.16219711 0.07131668 -0.13948521 0.09319095
0.05244075 -0.15954503 -0.00026776613 -0.020277942 -0.02878981 -0.05194555 -0.04994072 -0.116740204
-0.16448075 -0.14805143 -0.008348404 -0.07648895 -0.07937077 0.13554007 -0.13164164 -0.104018934
0.036108915 -0.060814332 -0.058032434 0.15786114 0.010910899 0.070382506 -0.17254032 -0.028823888
-0.13631015 0.03362436 -0.027018767 0.0049606133 -0.11144803 -0.11329246 0.016505191 -0.030309482
-0.085101455 -0.12323019 0.059044436 0.09745571 0.11111819 -0.111677274 -0.1182838 -0.0030833147
-0.045054264 -0.09042045 -0.18015932 -0.11942332 -0.07627629 0.06972424 -0.09070847 0.1705488
-0.15940021 0.108580254 -0.025000164 -0.14103822 -0.097787395 0.04960117 -0.024408009 0.0025032044
0.098997064 -0.14709537 -0.09365128 0.05013153 0.008940754 -0.08529691 0.042706635 0.12122829
-0.06332989 -0.13363136 -0.17069419 0.07375397 0.14113909 -0.07213852 0.1688297 0.112383135
-0.18517826 -0.072985575 0.12895434 0.09025284 0.00046134277 0.0015703466 0.106175184 0.026922578
-0.17037283 -0.09719841 -0.05241674 -0.018436154 -0.0658519 0.075058386 0.13850488 -0.05885744
-0.02416975 0.085073076 -0.09812283 -0.14550687 0.139477 -0.14721283 0.1265983 0.15465274
-0.08285054 -0.042865947 0.092016324 -0.16647854 -0.16622491 0.042233303 -0.16050567 -0.10883608
00000000: 73cd e73d 1de0 0f3e ec0c 9c3d 650e f53d
00000010: c626 0dbe 258c 353e b308 38be e783 1b3e
00000020: de71 0abe c949 e6bc 244e 923d 0dd7 103e
00000030: 622d 82bd ff38 333e 5daa c9bd 337f 1b3e
00000040: 7afd 4c3e 214b 3d3e 35b6 b7bd eab9 f0bd
00000050: f7d9 473e e3ba 113e 3fdf a13d 606d 243e
00000060: 6e3e 8fbc fa73 05be 206d 3dbe 0595 753d
00000070: a8ac fc3c 8a00 38be 4c3e 5bbd 6b9c 0cbd
00000080: 84b7 0b3e b5b8 15bd 52ce a2bd 4937 e3bd
00000090: dda8 38bb 0db7 0bbc 0c6d 1f3e f5c4 9a3d
000000a0: 3069 eabd 3c45 d6bb 58ff 23be 3644 e03c
000000b0: ce04 d9bc 67a9 9fbd 86a2 9b3c 88ca 26bd
000000c0: 2731 6abc 8fa1 22be 307c 13be be82 8f3b
000000d0: 0877 583c 0fb7 ea3d 6449 023e 84b5 53bd
000000e0: e006 503d 3418 373e 0dd3 ff3b 7aac 1e3c
000000f0: 68e2 fbbc e63d 22be ca14 b4bd f6d5 d53d
00000100: 543a f43d 2b04 84bc 2f0e a5bd 1df1 833b
00000110: a92d 5c3d 1c2f 2cbe e1a0 7f3c 07b7 a73b
00000120: 09de 093d a1f6 27bc 274c d13d df92 063e
00000130: cbd6 1ebe c268 c5bc d765 13be 7cdb be3d
00000140: dcdb 41be 1caa a1bd 14b1 aa3d 5ee5 d13d
00000150: 07d7 293e 4dc6 723d 0ab8 a7bd e74d de3d
00000160: 8e95 d6bc a9d8 44be d797 c13b 113e f9bd
00000170: a38f 8f3d f613 69bc e5af a03d 9f0a 333c
00000180: dfc4 a13d 7260 26be b2fc 813c b793 3ebe
00000190: ca65 113d 26ce ad3d d42c d6bd 1e78 f13d
000001a0: 22e9 3ebe 46d5 a23d 72eb 25be b963 0f3e
000001b0: 3c10 19bd 7c86 2e3e 03fc 143e 884c 383d
000001c0: 44d8 05be 5e71 40be 4a24 b3bd 43f8 473d
000001d0: 4cd4 85bd 96b4 9b3d 73b0 c7bd 99d8 02be
000001e0: fc5d 713d e7b7 67bd 6065 bb3d a31d aabd
000001f0: 8bad b73d 05cd 2ebd 3028 3b3e 42c9 4a3d
00000200: 18ab 273d 85c8 1c3e b719 1a3e ec72 d53d
00000210: b425 9e3d 29c0 2cbc 1a94 2bbe ea2b 303d
00000220: e0af ee3d dd0d 593d 0841 d2bd 8226 e5bd
00000230: 576e d93d 426b 84bd d873 053e 3b24 be3d
00000240: 572a 103e 426e 01bd 94af 33be dc68 073e
00000250: 0017 26be 7b0e 923d 36d5 0ebe e6da be3d
00000260: 1dcc 563d c65f 23be f662 8cb9 ed1d a6bc
00000270: 9cd8 ebbc dbc4 54bd a48e 4cbd 7d15 efbd
00000280: a46d 28be cb9a 17be bfc7 08bc 3da6 9cbd
00000290: 248d a2bd 04cb 0a3e 11cd 06be e107 d5bd
000002a0: f1e6 133d 7318 79bd 6bb3 6dbd 5aa6 213e
000002b0: a1c3 323c b424 903d 69ae 30be 1320 ecbc
000002c0: e394 0bbe b2b9 093d 7656 ddbc a48c a23b
000002d0: dd3e e4bd e105 e8bd e535 873c 974b f8bc
000002e0: ac49 aebd 1c60 fcbd 94d8 713d dc96 c73d
000002f0: ef91 e33d 0eb7 e4bd c73e f2bd 7011 4abb
00000300: d28a 38bd 5b2e b9bd af7b 38be 3794 f4bd
00000310: be36 9cbd 95cb 8e3d 5dc5 b9bd 58a4 2e3e
00000320: cf39 23be 535f de3d 25cd ccbc 536c 10be
00000330: c244 c8bd 992a 4b3d 4ef3 c7bc cd0c 243b
00000340: f9be ca3d 2ba0 16be 3ecc bfbd b856 4d3d
00000350: 3e7c 123c 25b0 aebd 27ed 2e3d 8a46 f83d
00000360: 1ab3 81bd a9d6 08be 75ca 2ebe 520c 973d
00000370: c486 103e 5cbd 93bd b1e1 2c3e 2129 e63d
00000380: 5f9f 3dbe 7679 95bd 9b0c 043e 7bd6 b83d
00000390: 61e0 f139 17d4 cd3a 6072 d93d bd8c dc3c
000003a0: 3776 2ebe f60f c7bd f0b2 56bd 6b07 97bc
000003b0: 5cdd 86bd 36b8 993d 39d4 0d3e 8014 71bd
000003c0: a4ff c5bc cb3a ae3d 9ff4 c8bd c1ff 14be
000003d0: 0fd3 0e3e f6be 16be fca2 013e 4a5d 1e3e
000003e0: 8bad a9bd 3494 2fbd 0e73 bc3d 5a79 2abe
000003f0: dd36 2abe d4fc 2c3d 995b 24be 73e5 debd

conv2.bias f4 [64]
-0.011597083 0.03293378 0.032213967 -0.008386358 0.027763419 -0.00420716 -0.011462628 0.020460187
-0.012406076 0.0317383 -0.0013086188 0.034428358 -0.011365337 -0.013934421 -0.012470241 -0.013524406
0.025815444 0.032702364 0.012779774 0.037116874 -0.011703205 0.038377948 0.027838299 0.03337569
0.01761299 -0.011552939 0.034637094 0.028262205 -0.010274243 -0.005571326 0.036047388 0.024925208
0.029359968 0.021077305 0.02366676 0.015886247 -0.012969669 0.0009052717 0.036436398 0.031545214
0.008406218 0.00551697 0.0096568735 0.025661722 0.03518476 0.032753494 0.029007114 -0.016791778
0.033773974 0.012629969 0.024610477 0.011108606 0.03997825 0.028858786 0.035599466 -0.012446078
0.022111485 0.030006092 0.036758434 0.0061331284 -0.013193405 0.01870186 -0.003897439 -0.012652454
00000000: b101 3ebc 92e5 063d cbf2 033d ef66 09bc
00000010: 1c70 e33c 37dc 89bb bfcd 3bbc 1f9c a73c
00000020: db42 4bbc 0500 023d f685 abba c004 0d3d
00000030: ae35 3abc 334d 64bc fb4f 4cbc 7895 5dbc
00000040: e97a d33c eaf2 053d 4262 513c dd07 183d
00000050: cdbe 3fbc 3232 1d3d 250d e43c f3b4 083d
00000060: 1e49 903c 8a48 3dbc a0df 0d3d 2486 e73c
00000070: 4c55 28bc ab8f b6bb 6da6 133d f32f cc3c
00000080: 5184 f03c 50aa ac3c cbe0 c13c e023 823c
00000090: bc7e 54bc c14f 6d3a 553e 153d 8e35 013d
000000a0: 3cba 093c b3c7 b43b dd37 1e3c 8838 d23c
000000b0: e51d 103d 8728 063d 54a0 ed3c e98e 89bc
000000c0: 9456 0a3d eeed 4e3c e99b c93c df00 363c
000000d0: 3cc0 233d 4369 ec3c bfd0 113d a2ea 4bbc
000000e0: 2523 b53c 56cf f53c 0390 163d 69f8 c83b
000000f0: 2729 58bc a534 993c 2d6c 7fbb 3d4c 4fbc

conv2.lin.weight f4 [64, 64]
-0.18396924 -0.076413885 0.05752702 0.17452297 -0.20940855 -0.13122594 0.113657914 0.13117966
0.14390019 -0.10128803 0.0043926258 0.19472615 -0.045062892 -0.0019843539 -0.15135473 -0.038012043
0.19846755 -0.12151423 0.090597615 0.20926033 -0.1690023 -0.15224113 0.12870891 -0.1899843
-0.027282579 -0.14292663 -0.02046312 -0.13195685 0.11182775 0.07206108 0.107303984 0.14624831
0.21980044 -0.23732574 0.17671053 -0.0922797 0.10147521 -0.12006877 -0.10329908 0.05756386
-0.011565538 -0.15755217 -0.078007914 -0.0739723 0.092753954 0.20982179 0.09123069 0.07562064
-0.06546669 0.20584504 0.1096746 -0.13297722 -0.13985705 0.19805914 0.095657945 0.12973508
-0.16974434 -0.1674339 0.07645736 0.090548694 -0.01080724 -0.05659197 0.046074573 -0.115671605
-0.12520456 -0.120717786 -0.17147547 0.010581923 0.14447388 -0.020994002 0.014142707 -0.086685635
0.049109835 0.10431485 -0.19795123 -0.17820077 0.24016865 -0.0449067 -0.02314734 -0.12553602
-0.20165664 -0.012906995 0.17422637 0.19518565 0.23322888 -0.17692001 0.0030964382 -0.20175219
0.12607522 -0.018536542 0.12342695 -0.08157022 0.17702907 -0.17251946 0.15481411 -0.14799964
-0.0708 0.24294063 -0.16267069 -0.14994334 0.20359981 0.056399602 0.096272685 -0.090463765
-0.023125075 0.15179728 0.08302291 -0.1380835 0.11087838 0.14462279 0.19914363 0.031845212
-0.1671232 0.12456633 0.16432431 -0.07548733 -0.005324822 -0.13394006 0.18961835 0.10711385
0.17084943 0.23014498 -0.16530383 -0.0898534 0.11944493 -0.12160416 -0.116147354 -0.15442438
-0.05374013 0.057496842 0.22957084 -0.031007186 0.22233024 0.10285664 -0.15605105 0.11889137
0.14059366 0.17561972 0.09741831 -0.03188054 0.124199465 -0.04453245 -0.18873928 0.20854604
0.066333026 -0.037973743 -0.05769243 0.051324364 -0.13883963 0.17812754 0.057201304 0.18338975
0.110931024 -0.08112306 0.17103471 -0.098714985 -0.047272205 0.08146377 -0.15821229 0.13227968
-0.09426291 -0.04879425 -0.039090265 0.23677598 -0.12905066 -0.08508653 0.0070194257 0.20991635
-0.17022313 0.16465275 0.051935546 -0.1406318 -0.18028042 0.12588367 0.101733424 0.14939208
-0.17589694 -0.117739335 -0.043227263 -0.1072304 0.11236354 0.22968143 0.09309467 -0.11530629
0.13559277 0.031125726 0.10373888 0.11110664 -0.13323513 -0.0925306 0.23682423 0.08680962
0.08054465 0.16042286 -0.16139005 0.042815328 0.07119262 -0.05846962 0.100019485 0.03426862
0.2194567 0.19570069 0.075866714 0.11469523 -0.08074623 0.22492504 0.16998814 0.03971317
0.04978462 0.07914463 0.1413776 0.21027017 -0.14724071 0.120949134 -0.11061132 0.19697332
-0.01988239 0.016799139 0.025455862 0.13017099 -0.061826807 -0.07382638 -0.148979 0.14111623
-0.1934013 0.07017369 -0.044624757 0.1341431 -0.06372626 -0.054778833 0.044184003 0.015101606
0.059312705 -0.06202438 0.047829576 0.124144495 0.040933635 -0.07444666 -0.03631095 0.086044036
0.054574136 0.19013458 -0.21729682 -0.02756625 -0.1940042 0.03143862 -0.16536038 0.0076496378
-0.10903229 -0.07677541 -0.18868493 0.14965455 -0.21200031 -0.18108785 -0.059916884 0.19167958
00000000: 6f62 3cbe e27e 9cbd 74a1 6b3d 26b6 323e
00000010: 326f 56be 1860 06be 7bc5 e83d f653 063e
00000020: 925a 133e 1970 cfbd 04f0 8f3b 4b66 473e
00000030: de93 38bd ef0b 02bb bcfc 1abe 84b2 1bbd
00000040: 143b 4b3e 74dc f8bd 3e8b b93d 5748 563e
00000050: f00e 2dbe 19e5 1bbe 45cc 033e 3f8b 42be
00000060: b77f dfbc 5c5b 12be 46a2 a7bc b21f 07be
00000070: f305 e53d c294 933d 31c2 db3d 1ec2 153e
00000080: 5e13 613e 8505 73be 9bf3 343e 24fd bcbd
00000090: 3cd2 cf3d 9ee6 f5bd 788e d3bd 15c8 6b3d
000000a0: 627d 3dbc 5b55 21be 9dc2 9fbd ca7e 97bd
000000b0: c9f5 bd3d 86db 563e 28d7 ba3d fede 9a3d
000000c0: 6613 86bd 0bc9 523e 149d e03d 2e2b 08be
000000d0: b036 0fbe 04d0 4a3e 50e8 c33d 46d9 043e
000000e0: 76d1 2dbe cb73 2bbe ad95 9c3d 9871 b93d
000000f0: da10 31bc fbcc 67bd b1b8 3c3d 3ce5 ecbd
00000100: a035 00be e33a f7bd 4497 2fbe cd5f 2d3c
00000110: f6f0 133e 9dfb abbc d0b6 673c 3d88 b1bd
00000120: 6527 493d 06a3 d53d bab3 4abe 437a 36be
00000130: c5ee 753e 16f0 37bd 7e9f bdbc 848c 00be
00000140: 147f 4ebe dc77 53bc 6668 323e bfde 473e
00000150: 8dd3 6e3e 852a 35be 9ded 4a3b 2098 4ebe
00000160: dd19 013e f2d9 97bc 45c7 fc3d 4a0e a7bd
00000170: 1c47 353e f1a8 30be 9787 1e3e 388d 17be
00000180: 97ff 90bd 6ec5 783e 2593 26be bf8a 19be
00000190: 787c 503e 4503 673d 9d2a c53d 1145 b9bd
000001a0: cc70 bdbc bf70 1b3e ea07 aa3d c365 0dbe
000001b0: 3414 e33d ff17 143e 4fec 4b3e 2070 023d
000001c0: 5822 2bbe a21c ff3d a244 283e 1a99 9abd
000001d0: d87b aebb 9527 09be 502b 423e 825e db3d
000001e0: 27f3 2e3e 20ab 6b3e 6845 29be 0f05 b8bd
000001f0: 8b9f f43d 9a0b f9bd aade edbd 6d21 1ebe
00000200: 9c1e 5cbd cf81 6b3d 9e14 6b3e c802 febc
00000210: 8aaa 633e 81a6 d23d d9cb 1fbe 527d f33d
00000220: c9f7 0f3e a8d5 333e 4083 c73d 2b95 02bd
00000230: 4a5c fe3d a967 36bd df44 41be 188d 553e
00000240: 9cd9 873d 5b8a 1bbd e64e 6cbd 7f39 523d
00000250: fa2b 0ebe 1167 363e ea4b 6a3d 86ca 3b3e
00000260: ce2f e33d d923 a6bd b923 2f3e 152b cabd
00000270: 80a0 41bd 7ad6 a63d 6702 22be 5374 073e
00000280: ea0c c1bd 7bdc 47bd 1d1d 20bd 6775 723e
00000290: db25 04be d941 aebd 3603 e63b 50f4 563e
000002a0: f94e 2ebe bb9a 283e 5eba 543d c801 10be
000002b0: 6e9b 38be a6e7 003e 9d59 d03d 3dfa 183e
000002c0: 541e 34be 5221 f1bd 120f 31bd 9d9b dbbd
000002d0: db1e e63d 9c31 6b3e 6ba8 be3d b425 ecbd
000002e0: d5d8 0a3e 61fb fe3c 0d75 d43d e18b e33d
000002f0: ca6e 08be af80 bdbd 0d82 723e 3ec9 b13d
00000300: 98f4 a43d e445 243e 6f43 25be 205f 2f3d
00000310: 70cd 913d d77d 6fbd 04d7 cc3d 415d 0c3d
00000320: 42b9 603e c365 483e 0260 9b3d 55e5 ea3d
00000330: 485e a5bd c052 663e 5f11 2e3e 47aa 223d
00000340: f5ea 4b3d 9416 a23d 4ac5 103e 1051 573e
00000350: 45c6 16be 2eb4 f73d 3088 e2bd 60b3 493e
00000360: 65e0 a2bc 599e 893c d088 d03c 8b4b 053e
00000370: 1b3e 7dbd 4932 97bd f38d 18be c680 103e
00000380: fe0a 46be 39b7 8f3d 73c8 36bd cf5c 093e
00000390: ea82 82bd c55f 60bd 49fa 343d ba6c 773c
000003a0: e1f1 723d 470d 7ebd f2e8 433d 783f fe3d
000003b0: 07aa 273d 7e77 98bd caba 14bd db37 b03d
000003c0: 2189 5f3d a4b2 423e 0f83 5ebe 9ed2 e1bc
000003d0: 09a9 46be c8c5 003d 3b54 29be d0a9 fa3b
000003e0: 524c dfbd 6d3c 9dbd 9f36 41be 0b3f 193e
000003f0: 9c16 59be 186f 39be 686b 75bd a747 443e

edge_mlp.0.weight f4 [64, 128]
0.026592169 0.009282625 -0.041605517 -0.051049653 -0.09437302 -0.046684537 0.09553146 -0.022804769
-0.062417317 -0.03147883 0.025087567 -0.04961872 -0.02469391 -0.06763934 0.0880828 -0.013764161
-0.04499386 -0.10863453 -0.07168042 0.016839745 0.029587112 0.040768053 -0.023830844 -0.06404938
-0.10276814 0.0025883114 -0.077984504 0.030381372 0.030440195 -0.0068650437 0.00514171 0.006631845
-0.021241188 -0.038584106 0.086420365 -0.06276439 -0.025033614 -0.018895637 -0.0950026 -0.08965581
-0.08157016 0.04968656 -0.07629612 -0.02873652 -0.11203063 0.05567558 -0.113172665 -0.019792411
-0.068574846 -0.022095025 -0.11203447 0.026460776 -0.07836488 -0.11662101 -0.09723544 0.021796823
-0.026888058 0.05225705 -0.07354878 0.056732982 0.084483445 0.0452798 -0.057888795 0.0057725906
-0.042098105 -0.0134873 -0.10763478 -0.057443194 -0.09145667 0.07543782 0.098586746 0.05940914
-0.0067201075 -0.11051369 0.065575026 -0.046828493 0.06568421 0.08428773 0.06003366 -0.045880582
0.005355493 -0.037375674 -0.016968653 -0.09965389 0.035173897 0.013618872 0.025045153 -0.049184553
0.078734785 0.082896434 0.04454484 -0.08229601 0.04932118 0.010983958 -0.07256066 -0.05448634
-0.057006527 -0.027117362 -0.06490249 0.11388027 0.02156952 -0.012171644 -0.011259866 -0.048916675
-0.062026683 -0.07609374 -0.020339925 -0.07229294 0.00778842 -0.0690602 -0.065276794 -0.0076926206
-0.052079692 0.005714749 -0.08984633 -0.061116073 -0.060619637 -0.026736893 0.030110076 0.053693492
0.021690156 0.009200267 -0.0076936507 -0.045074128 0.06376644 0.05696316 0.022139575 0.05509683
-0.010820458 0.09962334 -0.03533239 0.0037310165 -0.011676264 0.0036116699 -0.04332646 -0.049636375
-0.06874746 0.04884209 0.018706037 0.07865657 0.07550969 0.07585546 -0.079630494 0.019875066
0.09598417 -0.01766954 -0.0006704282 -0.031511873 -0.0765542 0.111049265 0.018865874 0.09841527
0.060886774 0.014240339 -0.027452486 0.011332163 0.025257714 0.04498991 0.066707246 -0.039167807
0.05780159 0.018142661 -0.049240742 0.08984322 0.035521336 0.05182571 0.06791846 -0.045659292
-0.0019513034 -0.023424491 0.015696712 -0.011007133 0.01996632 0.057357598 0.06770522 -0.032252707
0.080673404 0.037666734 -0.009430837 0.08529074 0.12143926 0.031747896 0.07853262 -0.05662372
-0.013928912 0.047778003 -0.016401744 -0.032889653 0.05227306 0.00274028 -0.058081344 -0.016234605
-0.10367391 0.020986266 0.027105952 0.0007544144 0.10345662 -0.08018155 -0.038183577 0.019795492
-0.05537799 0.0688385 -0.056177836 0.04596852 -0.03974563 0.008768304 -0.017921144 -0.030211633
-0.05079547 0.099301375 -0.023027563 0.0779373 -0.09141199 0.041412618 0.049569122 0.035393074
-0.010775221 -0.021885876 0.010428092 0.087511465 0.009411302 -0.05596178 0.07999087 0.07432283
-0.042244382 -0.03160432 -0.04350314 -0.10185659 0.06768203 0.049705584 0.066574045 0.118069015
-0.07579619 0.084918365 -0.06370048 0.09141909 -0.041098315 -0.009098779 0.08052253 -0.09878954
0.12598087 -0.026956856 6.8740745e-05 -0.061838076 0.10457066 0.06346027 0.08693544 -0.025693007
0.039954606 0.11590474 0.032312877 -0.04307437 -0.049974676 -0.040639292 0.04986679 0.058029316
00000000: d2d7 d93c 2716 183c 8c6a 2abd 7119 51bd
00000010: a446 c1bd 4938 3fbd 00a6 c33d 11d1 babc
00000020: 4da9 7fbd f2ef 00bd 7184 cd3c 003d 4bbd
00000030: e24a cabc 7f86 8abd c164 b43d 1383 61bc
00000040: 7b4b 38bd c87b debd 2fcd 92bd 81f3 893c
00000050: ac60 f23c 67fc 263d e738 c3bc 522c 83bd
00000060: 1a78 d2bd a9a0 293b 57b6 9fbd 5be2 f83c
00000070: b75d f93c 29f4 e0bb ca7b a83b f34f d93b
00000080: 0002 aebc 5e0a 1ebd 29fd b03d 9e8a 80bd
00000090: 4b13 cdbc 06cb 9abc b990 c2bd 779d b7bd
000000a0: 420e a7bd 2284 4b3d 2441 9cbd da68 ebbc
000000b0: 5170 e5bd 140c 643d 12c7 e7bd b223 a2bc
000000c0: f870 8cbd a000 b5bc 5472 e5bd 45c4 d83c
000000d0: c47d a0bd ffd6 eebd 6023 c7bd 408f b23c
000000e0: 5844 dcbc 7d0b 563d bea0 96bd d860 683d
000000f0: a805 ad3d 5077 393d cd1c 6dbd 0028 bd3b
00000100: 106f 2cbd d6f9 5cbc a06f dcbd 8e49 6bbd
00000110: a24d bbbd 257f 9a3d d9e7 c93d 0057 733d
00000120: 5934 dcbb 0055 e2bd 334c 863d 3ccf 3fbd
00000130: 7185 863d 0c9f ac3d dbe5 753d 47ed 3bbd
00000140: 227d af3b 3c17 19bd d801 8bbc 5717 ccbd
00000150: 8112 103d b021 5f3c 7e2b cd3c be75 49bd
00000160: b43f a13d 9bc5 a93d a674 363d cf8a a8bd
00000170: 0105 4a3d 0ff6 333c af9a 94bd 122d 5fbd
00000180: ad7f 69bd 3b25 debc 99eb 84bd 0f3a e93d
00000190: 90b2 b03c 936b 47bc 4d7b 38bc da5c 48bd
000001a0: b10f 7ebd 09d7 9bbd ea9f a6bc 520e 94bd
000001b0: 0136 ff3b 6f6f 8dbd d7af 85bd 6112 fcbb
000001c0: 8451 55bd ca42 bb3b 5a01 b8bd d954 7abd
000001d0: 4c4c 78bd 5407 dbbc 68a9 f63c b5ed 5b3d
000001e0: 8eaf b13c b7bc 163c 051b fcbb a69f 38bd
000001f0: fb97 823d 3452 693d 0e5e b53c 37ad 613d
00000200: 4a48 31bc 5207 cc3d b2b8 10bd 1284 743b
00000210: cd4d 3fbc c4b1 6c3b 1677 31bd 834f 4bbd
00000220: 78cb 8cbd a50e 483d 673d 993c b216 a13d
00000230: d3a4 9a3d 1b5a 9b3d 5015 a3bd 09d1 a23c
00000240: 5993 c43d b6bf 90bc adbf 2fba 9812 01bd
00000250: 73c8 9cbd cc6d e33d 9b8c 9a3c f28d c93d
00000260: 6964 793d 5050 693c 09e4 e0bc 89aa 393c
00000270: 44e9 ce3c 5747 383d cf9d 883d 6c6e 20bd
00000280: 5cc1 6c3d eb9f 943c a9b0 49bd b9ff b73d
00000290: d27e 113d 3247 543d d518 8b3d 3d05 3bbd
000002a0: e1c2 ffba b8e4 bfbc 6496 803c 4357 34bc
000002b0: 6890 a33c cdef 6a3d 09a9 8a3d 6a1b 04bd
000002c0: 1938 a53d 6f48 1a3d cc83 1abc e9ac ae3d
000002d0: 26b5 f83d 150a 023d b6d5 a03d 46ee 67bd
000002e0: 1736 64bc deb2 433d f35c 86bc 4db7 06bd
000002f0: 471c 563d 4596 333b b4e6 6dbd 6ffe 84bc
00000300: fd52 d4bd 64eb ab3c 4d0d de3c e5c3 453a
00000310: 10e1 d33d 3936 a4bd 6266 1cbd 282a a23c
00000320: 08d4 62bd 33fb 8c3d bb1a 66bd 7d49 3c3d
00000330: 50cc 22bd efa8 0f3c 5dcf 92bc 637e f7bc
00000340: e90e 50bd 855e cb3d 4da4 bcbc 979d 9f3d
00000350: 3636 bbbd 47a0 293d fe08 4b3d 54f8 103d
00000360: 8d8a 30bc 024a b3bc 97da 2a3c 3639 b33d
00000370: dd31 1a3c 2e38 65bd 41d2 a33d 9136 983d
00000380: 7208 2dbd 8873 01bd 5930 32bd 309a d0bd
00000390: e09c 8a3d 1598 4b3d f957 883d 2bce f13d
000003a0: 083b 9bbd aee9 ad3d 6675 82bd ef39 bb3d
000003b0: b556 28bd 0c13 15bc ffe8 a43d 2c52 cabd
000003c0: 2101 013e a0d4 dcbc e828 9038 ec49 7dbd
000003d0: 2429 d63d 75f7 813d 350b b23d 247a d2bc
000003e0: 71a7 233d 775f ed3d 825a 043d c06e 30bd
000003f0: 3fb2 4cbd 6375 26bd 1f41 4c3d 26b0 6d3d

edge_mlp.0.bias f4 [64]
0.00096496945 -0.06320716 -0.092553474 -0.04803549 0.014022972 -0.075560756 0.09413947 0.022891928
-0.069489904 0.03477241 0.03646745 -0.022051467 -0.012268276 0.0023011735 0.0037371414 -0.06507875
-0.024655404 0.058661498 -0.0015760884 0.007383972 0.07092797 0.04278478 0.055015825 -0.018163944
0.030092686 -0.008864635 -0.0014867424 -0.02384401 -0.05751052 -0.058300313 0.016625958 0.015343963
-0.017630547 0.06923372 -0.04453224 0.04253349 0.044270754 0.09055068 -0.038228296 -0.016241843
0.038989354 0.052971557 0.066185996 -0.057490833 -0.0045220363 0.059816852 0.005419706 -0.013811972
-0.03660087 -0.0027731098 -0.00063176506 0.060447995 -0.01475828 0.09554432 0.041316394 0.07374822
0.074722305 0.061957434 0.0046805916 -0.08487234 0.06856963 0.0374487 -0.03493237 -0.020562463
00000000: 01f6 7c3a c172 81bd ad8c bdbd ddc0 44bd
00000010: 9cc0 653c 99bf 9abd 32cc c03d da87 bb3c
00000020: b950 8ebd 846d 0e3d e55e 153d 47a5 b4bc
00000030: e100 49bc 49cf 163b d4ea 743b 0248 85bd
00000040: 21fa c9bc 0a47 703d c094 ceba 3ff5 f13b
00000050: af42 913d 183f 2f3d 4658 613d 8dcc 94bc
00000060: f084 f63c f93c 11bc ccde c2ba 8354 c3bc
00000070: 2790 6bbd 4fcc 6ebd 2933 883c 3f65 7b3c
00000080: f06d 90bc 69ca 8d3d 7067 36bd 9937 2e3d
00000090: 4055 353d a372 b93d 4695 1cbd 9d0d 85bc
000000a0: 4db3 1f3d b4f8 583d 868c 873d 827b 6bbd
000000b0: 972d 94bb 8402 753d ca97 b13b 9c4b 62bc
000000c0: cbea 15bd 10bd 35bb 099d 25ba 5198 773d
000000d0: b6cc 71bc beac c33d 613b 293d 4f09 973d
000000e0: 0208 993d 14c7 7d3d a65f 993b 8dd1 adbd
000000f0: 3c6e 8c3d cf63 193d 3f15 0fbd 9c72 a8bc

edge_mlp.2.weight f4 [32, 64]
-0.08412283 0.09884041 0.04729774 0.018718792 0.03096256 -0.11324031 -0.05325159 0.006356324
0.11031678 0.096137196 -0.07520151 0.036176253 0.030832214 -0.059396695 0.099874824 -0.056212056
-0.07345706 0.13704015 0.022832746 -0.06259487 -0.055585567 0.010675482 -0.045184202 -0.1455296
-0.101474315 0.09629014 0.083293185 0.051852766 0.015945248 -0.124030344 -0.12121655 0.01937639
-0.14936563 -0.1282147 0.07386855 -0.054145016 -0.05506515 0.010260752 0.12958238 -0.045202456
-0.0065119215 0.07068602 0.030226562 0.06887384 -0.010031372 -0.06832969 0.047585834 0.08796446
0.039478548 -0.1449242 0.12313629 0.019639838 0.13704619 -0.016601538 -0.04733029 -0.14043714
0.06834068 0.07869678 0.010710298 -0.0006576469 0.10324869 0.102197625 -0.051107824 -0.112918615
0.07687687 -0.10585911 -0.0060443776 0.083497226 0.078550436 -0.061690968 0.056646828 -0.078757904
0.03671602 0.027759029 -0.100799255 -0.06837214 -0.099388584 0.12380189 -0.10890328 0.041859653
-0.048414376 -0.1492436 0.0046850434 0.0745398 -0.038229052 -0.09821363 0.08191631 -0.082753636
0.061253276 -0.071071744 -0.010035413 0.07337498 0.08126678 0.019653825 0.000978763 0.033486214
-0.07904358 -0.027322799 0.012508062 -0.08946545 -0.048177585 -0.13257281 0.09300504 -0.09771106
0.10186072 -0.115005486 -0.10309358 0.051388547 -0.051663794 -0.053145062 -0.13464847 -0.0947469
0.07332308 0.12648846 -0.11363884 0.107120596 0.020030804 -0.005905949 -0.0250905 0.06424586
0.03998956 -0.0784978 0.033800926 0.12115435 -0.12523243 -0.022268562 0.08554362 -0.05934728
-0.045843523 0.047326762 -0.038780402 -0.049484525 0.071048185 0.061762813 0.007599876 0.039545313
-0.09165113 -0.082253516 -0.112244904 0.04978673 -0.11744247 -0.05718073 -0.124121636 -0.024571907
0.060074307 -0.09697721 0.020626651 0.03933928 -0.017878206 -0.08018303 0.094604045 0.13988174
0.08135015 -0.09030361 -0.021968087 -0.0903217 0.03656407 0.065232754 0.028025538 -0.042890962
-0.027751362 -0.033794694 -0.021443082 -0.1452788 -0.14818965 -0.13996083 0.10184315 0.060668584
0.107089415 0.07919358 -0.055769097 0.030226076 -0.011628184 -0.148682 -0.120561235 -0.03620846
0.08337295 0.1443522 -0.13450384 0.09442139 -0.0374431 0.050474804 -0.13916765 0.13600379
-0.105490915 -0.049420312 0.04092049 -0.046932694 0.06711375 -0.12912482 0.031244723 0.015829504
0.08987863 0.013161846 0.13233581 0.039066974 0.070952296 -0.08101439 0.05647196 -0.0707754
-0.10158421 -0.029481113 -0.018143518 -0.05109254 0.07137231 0.10501782 -0.0956835 -0.018340288
0.034400832 -0.07326 -0.05282969 0.060082797 0.08695347 0.014269356 -0.001075247 0.14349551
-0.04414239 0.059156217 -0.07779876 -0.071816996 -0.017140036 0.014313242 -0.0128453495 -0.110407226
0.07283845 0.018276356 0.08244838 -0.0382071 -0.11925154 -0.064517014 -0.08781451 0.096855044
-0.013411122 -0.11237317 -0.038217336 -0.033452597 -0.03172931 0.025334891 0.09058725 -0.009399287
0.10267932 0.078033455 -0.008741042 -0.10234732 0.057155512 -0.004883956 -0.10939201 0.10728767
0.13364477 -0.08895591 0.048829112 -0.07550769 -0.098614074 -0.06849367 0.14188509 -0.07022015
00000000: 9748 acbd d76c ca3d 46bb 413d 2758 993c
00000010: 32a5 fd3c 89ea e7bd 571e 5abd b648 d03b
00000020: c4ed e13d 94e3 c43d 4003 9abd 8d2d 143d
00000030: d793 fc3c f349 73bd 2c8b cc3d 9d3e 66bd
00000040: a870 96bd 4154 0c3e bd0b bb3c bd31 80bd
00000050: b1ad 63bd 38e8 2e3c 1213 39bd b605 15be
00000060: c4d1 cfbd c433 c53d 9e95 aa3d 9163 543d
00000070: 9c9f 823c 9f03 febd 6240 f8bd 3cbb 9e3c
00000080: 4ef3 18be b74a 03be 6548 973d 2ac7 5dbd
00000090: ff8b 61bd b71c 283c 3eb1 043e 3626 39bd
000000a0: f561 d5bb d5c3 903d b29d f73c ba0d 8d3d
000000b0: a05a 24bc 70f0 8bbd 5de9 423d b626 b43d
000000c0: 42b4 213d 0267 14be e12e fc3d bae3 a03c
000000d0: d655 0c3e f3ff 87bc 68dd 41bd c1ce 0fbe
000000e0: 33f6 8b3d c72b a13d 3f7a 2f3c f065 2cba
000000f0: 0d74 d33d fd4c d13d 7056 51bd e041 e7bd
00000100: 9f71 9d3d a9cc d8bd ea0f c6bb 9800 ab3d
00000110: 0ddf a03d abaf 7cbd 8106 683d d34b a1bd
00000120: 8a63 163d e766 e33c d76f cebd b106 8cbd
00000130: 3e8c cbbd d88b fd3d af08 dfbd 0775 2b3d
00000140: 274e 46bd 50d3 18be fe84 993b 53a8 983d
00000150: 1196 1cbd 3a24 c9bd bdc3 a73d bd7a a9bd
00000160: b7e4 7a3d 108e 91bd 936b 24bc 9f45 963d
00000170: 336f a63d 0f01 a13c d649 803a d728 093d
00000180: 9ae1 a1bd 10d4 dfbc 9dee 4c3c a939 b7bd
00000190: dc55 45bd 2bc1 07be 6d79 be3d bc1c c8bd
000001a0: 5a9c d03d ff87 ebbd ba22 d3bd cc7c 523d
000001b0: 6a9d 53bd a3ae 59bd 4ae1 09be aa0a c2bd
000001c0: 692a 963d 3186 013e 7bbb e8bd 0b62 db3d
000001d0: a417 a43c b186 c1bb 988a cdbc 5593 833d
000001e0: 18cc 233d 74c3 a0bd d772 0a3d c61f f83d
000001f0: ee3c 00be 8f6c b6bc 7e31 af3d 2216 73bd
00000200: 6bc6 3bbd b5d9 413d 33d8 1ebd 49b0 4abd
00000210: b681 913d 01fb 7c3d 6108 f93b 44fa 213d
00000220: 96b3 bbbd 8874 a8bd a8e0 e5bd 2ced 4b3d
00000230: ad85 f0bd 5736 6abd 7c33 febd 064b c9bc
00000240: 7a10 763d fd9b c6bd 39f9 a83c 3a22 213d
00000250: 5175 92bc 0037 a4bd c4bf c13d 293d 0f3e
00000260: e89a a63d 19f1 b8bd 6bf6 b3bc 95fa b8bd
00000270: 35c4 153d c098 853d d095 e53c 6fae 2fbd
00000280: d356 e3bc 4e6c 0abd 67a9 afbc f7c3 14be
00000290: 07bf 17be e451 0fbe 2493 d03d 9f7f 783d
000002a0: b251 db3d 3e30 a23d 236e 64bd ad9c f73c
000002b0: 2384 3ebc 1840 18be cfe8 f6bd 524f 14bd
000002c0: 70bf aa3d 10d1 133e 60bb 09be 0060 c13d
000002d0: f05d 19bd abbe 4e3d f781 0ebe 9444 0b3e
000002e0: 9f0b d8bd f46c 4abd 3e9c 273d 7f3c 40bd
000002f0: ef72 893d 4c39 04be eff4 ff3c e0ac 813c
00000300: 4a12 b83d c9a4 573c 0a83 073e b104 203d
00000310: 704f 913d dfea a5bd 244f 673d b1f2 90bd
00000320: 620b d0bd 6082 f1bc b7a1 94bc 6946 51bd
00000330: a52b 923d 9513 d73d b6f5 c3bd 5f3e 96bc
00000340: e3e7 0c3d 5709 96bd f263 58bd 6119 763d
00000350: a914 b23d 04ca 693c 4def 8cba 7df0 123e
00000360: a7ce 34bd ca4d 723d f554 9fbd ca14 93bd
00000370: 4369 8cbc 1782 6a3c 4d75 52bc 2f1d e2bd
00000380: 532c 953d 4cb8 953c b2da a83d 0c7f 1cbd
00000390: 273a f4bd 7f21 84bd 18d8 b3bd f05b c63d
000003a0: 53ba 5bbc e823 e6bd c889 1cbd 9705 09bd
000003b0: 98f6 01bd 1e8b cf3c cf85 b93d 78ff 19bc
000003c0: 8949 d23d 01d0 9f3d 9636 0fbc 799b d1bd
000003d0: e61b 6a3d 9809 a0bb eb08 e0bd a3b9 db3d
000003e0: 2dda 083e 842e b6bd 0901 483d c7a3 9abd
000003f0: 2df6 c9bd 6946 8cbd 534a 113e 95cf 8fbd

edge_mlp.2.bias f4 [32]
-0.05016186 0.0832714 0.032708995 -0.1062497 0.09662222 -0.07482341 0.027367162 0.04060301
0.078572325 -0.06972381 -0.12697524 0.0013327502 0.018370377 -0.061146233 -0.08465064 -0.041287627
-0.008225568 0.10647555 0.09980294 -0.018764691 -0.0959443 -0.09147094 -0.07368775 0.03569863
-0.082427114 0.05243544 0.07573937 0.1320254 -0.067446515 0.07699439 -0.08145975 -0.043836925
00000000: 8676 4dbd 328a aa3d def9 053d 7199 d9bd
00000010: dfe1 c53d 043d 99bd 1931 e03c 584f 263d
00000020: 87ea a03d 5bcb 8ebd cc05 02be adaf ae3a
00000030: 797d 963c 7974 7abd 515d adbd 371d 29bd
00000040: 88c4 06bc da0f da3d 7c65 cc3d 69b8 99bc
00000050: 727e c4bd 1e55 bbbd 9ae9 96bd ba38 123d
00000060: 8ccf a8bd 8bc6 563d 3e1d 9b3d ab31 073e
00000070: 6621 8abd 3caf 9d3d 5fd4 a6bd 598e 33bd

edge_mlp.3.weight f4 [2, 32]
0.13184255 0.033104815 0.19154768 0.0764158 -0.13618852 -0.18142697 0.07309442 0.15432486
-0.021188037 0.12830567 0.017219976 0.19337697 -0.08395073 0.17223494 -0.1229502 0.017286614
-0.17366317 -0.17562184 0.045224056 -0.057565354 0.17539193 0.19832852 0.080735676 0.18533655
0.043590814 0.08834924 0.048108436 -0.069524884 0.13063358 0.02292959 0.0053926096 -0.13145736
0.16160956 0.0009185412 0.075194106 -0.024522126 0.16516839 -0.14646308 0.1852858 -0.17299518
-0.119090684 -0.11493984 -0.108228214 0.12200512 -0.18799809 0.09529982 0.058031656 -0.16230509
0.12914018 -0.11452301 0.14759068 0.010235486 -0.14979622 -0.09547026 -0.118742466 -0.024300043
-0.122688055 0.20313282 -0.14414544 0.048109002 -0.088133805 -0.057475466 0.08996485 0.17692377
00000000: bc01 073e ea98 073d 1325 443e e37f 9c3d
00000010: 0175 0bbe fec7 39be 87b2 953d 5607 1e3e
00000020: 8992 adbc 9062 033e e810 8d3c 9d04 463e
00000030: 5cee abbd 5b5e 303e 51cd fbbd a89c 8d3c
00000040: c2d4 31be 36d6 33be dc3c 393d a6c9 6bbd
00000050: f199 333e a216 4b3e bf58 a53d ddc8 3d3e
00000060: 488c 323d 72f0 b43d 5a0d 453d 1063 8ebd
00000070: cfc4 053e d6d6 bb3c 7db4 b03b c29c 06be
00000080: fa7c 253e 42ca 703a 5eff 993d a0e2 c8bc
00000090: e721 293e 6bfa 15be 90bb 3d3e a625 31be
000000a0: d1e5 f3bd 9465 ebbd c1a6 ddbd d2dd f93d
000000b0: 9282 40be 8d2c c33d 9ab2 6d3d 4e33 26be
000000c0: 533d 043e 0a8b eabd 0322 173e bdb2 273c
000000d0: 2e64 19be e985 c3bd 402f f3bd e210 c7bc
000000e0: e043 fbbd 0d02 503e dd9a 13be f20d 453d
000000f0: 7f7f b4bd 656b 6bbd 7e3f b83d 812b 353e

edge_mlp.3.bias f4 [2]
0.117117986 0.102517135
00000000: 8edb ef3d 81f4 d13d
